notebooks/mlmodel/trained_graphsage.pth (torch, 399712 bytes, 12 tensors)

convs.0.lin_l.weight f4 [128, 84]
0.1042551 -0.052904826 0.053081952 -0.0689701 -0.037442658 -0.09948933 -0.044549048 0.006648693
-0.019966355 -0.0967434 0.013871095 0.0608792 0.06803472 0.037432782 0.02446686 -0.08406093
-0.11103986 -0.056255862 0.017272152 -0.0632796 0.028715141 0.0021267638 0.014197026 -0.022154473
0.07394577 -0.08218901 0.04836668 0.11946667 -0.07415486 -0.090574965 -0.08637835 -8.08239e-05
0.040009357 -0.08355424 -0.08901049 0.017300699 0.10202605 0.048548386 0.011791534 0.041771136
0.08668466 -0.1075484 -0.03322838 -0.05317995 -0.07019837 -0.10213326 0.009478892 -0.0075376406
-0.031713642 -0.01472263 -0.029987562 -0.06706998 0.014909182 -0.047302127 0.03808769 0.082457006
-0.047507737 0.028935637 0.10470067 0.10688083 0.04429707 -0.10511931 -0.06431995 0.06447261
0.093705095 -0.04045998 -0.04969644 -0.0999096 0.074209124 0.09782592 -0.037412517 -0.028030215
0.025880259 -0.07784166 -0.08904714 -0.066683166 0.032001194 -0.0062632505 -0.043015853 0.0520895
-0.051087942 0.056356594 0.07751327 -0.038469836 0.058780484 -0.100039974 0.031320497 -0.09512561
-0.09586063 -0.01144028 -0.022398986 0.040943902 -0.012310598 -0.08305459 -0.09107145 -0.07246574
0.027345628 0.103043035 -0.020376038 0.10890808 0.04414763 0.05415359 -0.0034196302 0.11482948
0.005350783 -0.08710422 0.042868882 0.010686999 -0.079166465 -0.051152375 -0.016101968 -0.0060795452
0.06160012 0.023990486 0.020515613 0.010740554 0.057018828 -0.111481495 -0.017147794 -0.0009055429
0.017509105 -0.0031754042 0.035366744 -0.051697154 0.01852299 -0.061861195 -0.068281956 -0.022994174
-0.018352302 0.07675032 0.0012359351 0.070677675 0.071288034 0.070811786 -0.07323538 0.09327362
-0.027746655 0.0038516205 -0.044066824 0.08889095 -0.050290577 0.050188437 -0.07177445 -0.029078199
0.031421922 0.020378124 0.1172356 -0.011922621 -0.0415265 0.10085627 0.067396656 -0.024293361
0.028163044 0.110338934 0.07604521 -0.081212275 -0.012564422 -0.08863 -0.056056175 -0.0642066
0.02564817 -0.111560576 -0.03745532 -0.012306496 0.11401189 -0.10388075 0.04680248 0.088441715
0.050075844 -0.06114608 -0.04347786 0.06496152 -0.0254534 -0.083435826 0.027623298 0.045675367
-0.026546674 -0.057326835 -0.03592363 -0.03712618 0.05412235 0.09872629 0.10890587 -0.094525546
0.009200052 0.07375877 0.04244282 -0.10115249 -0.04711642 -0.029279713 0.1084876 0.034301978
-0.081453145 -0.044919804 -0.04539262 0.10388639 -0.010182644 -0.055871863 0.05158687 0.03659572
0.077827334 -0.03578792 -0.09267167 -0.01643253 -0.099149905 0.08191607 0.041810244 -0.0001126114
-0.03246977 -0.0012604592 -0.058470663 -0.021424683 0.036630385 -0.10672888 -0.06295539 -0.017490389
-0.03534109 -0.059425972 0.089290194 0.074037924 -0.0051562344 -0.022096945 -0.091311336 -0.081450574
0.088549405 0.041049607 0.06274483 0.10810269 -0.00911587 -0.039772835 0.037689246 0.017851437
-0.00017600038 -0.09962245 0.07907787 0.10283778 0.012059099 -0.039185572 -0.02761967 0.1073801
-0.09710036 0.0931502 -0.045183364 0.08340227 0.098699644 0.09007573 -0.030226395 -0.03040897
-0.02048151 -0.029878307 0.0098474845 0.021115517 0.1075464 0.09926973 0.060069468 0.079932556
00000000: b383 d53d bbb2 58bd 766c 593d 3240 8dbd
00000010: 795d 19bd 10c1 cbbd 1079 36bd 47dd d93b
00000020: 7b90 a3bc 6721 c6bd 9743 633c 785c 793d
00000030: ca55 8b3d 1e53 193d b96e c83c 2328 acbd
00000040: de68 e3bd 8c6c 66bd 547e 8d3c bc98 81bd
00000050: 043c eb3c 2d61 0b3b a59a 683c 4c7d b5bc
00000060: e170 973d b652 a8bd 241c 463d f1aa f43d
00000070: 81de 97bd 5e7f b9bd 22e7 b0bd 0080 a9b8
00000080: dae0 233d 7c1e abbd 224b b6bd 32ba 8d3c
00000090: 09f3 d03d acda 463d 4731 413c 3618 2b3d
000000a0: ba87 b13d 5642 dcbd 7b1a 08bd 38d3 59bd
000000b0: 2ac4 8fbd 3e2b d1bd 5b4d 1b3c 50fe f6bb
000000c0: 2ae6 01bd 3037 71bc 7aa8 f5bc fc5b 89bd
000000d0: a445 743c e0bf 41bd d601 1c3d 38df a83d
000000e0: 7997 42bd 6e0a ed3c 4e6d d63d 56e4 da3d
000000f0: d870 353d cb48 d7bd 2eba 83bd 370a 843d
00000100: 75e8 bf3d 5db9 25bd 7f8e 4bbd 689d ccbd
00000110: f4fa 973d f558 c83d de3d 19bd 9f9f e5bc
00000120: d602 d43c 736b 9fbd 595e b6bd 2f91 88bd
00000130: af13 033d f43b cdbb 6431 30bd cd5b 553d
00000140: 9741 51bd 2cd6 663d 47bf 9e3d 8c92 1dbd
00000150: cec3 703d c2e1 ccbd ec49 003d 37d1 c2bd
00000160: 9452 c4bd 0370 3bbc 147e b7bc cbb4 273d
00000170: 64b2 49bc 8618 aabd ab83 babd eb68 94bd
00000180: f003 e03c 3a08 d33d a6eb a6bc 330b df3d
00000190: 25d4 343d 28d0 5d3d e01b 60bb b82b eb3d
000001a0: 9f55 af3b b363 b2bd 4897 2f3d 8618 2f3c
000001b0: 0722 a2bd 2785 51bd 46e8 83bc ec36 c7bb
000001c0: 6850 7c3d b287 c43c 5c10 a83c 26f9 2f3c
000001d0: 938c 693d 6950 e4bd 8879 8cbc f561 6dba
000001e0: 416f 8f3c 711a 50bb b8dc 103d 65c0 53bd
000001f0: 87bd 973c 2a62 7dbd 69d7 8bbd 475e bcbc
00000200: 9157 96bc 462f 9d3d 1aff a13a 75bf 903d
00000210: 76ff 913d c505 913d 6efc 95bd 3d06 bf3d
00000220: f44c e3bc 786b 7c3b 6a7f 34bd 750c b63d
00000230: 7efd 4dbd 6492 4d3d 7cfe 92bd 6735 eebc
00000240: 46b4 003d 06f0 a63c 3819 f03d 1957 43bc
00000250: b117 2abd bb8d ce3d 4207 8a3d df02 c7bc
00000260: 2fb6 e63c 61f9 e13d 97bd 9b3d 9f52 a6bd
00000270: 01db 4dbc a583 b5bd 299b 65bd c07e 83bd
00000280: 1c1c d23c df79 e4bd c06a 19bd 2fa1 49bc
00000290: 117f e93d 6ebf d4bd f5b3 3f3d ee20 b53d
000002a0: 541c 4d3d 5074 7abd d715 32bd 8c0a 853d
000002b0: a683 d0bc 67e0 aabd 414a e23c 1816 3b3d
000002c0: 6978 d9bc 8bcf 6abd a824 13bd 9f11 18bd
000002d0: 66af 5d3d 0231 ca3d 0a0a df3d 9c96 c1bd
000002e0: d1bb 163c d70e 973d 86d8 2d3d 0929 cfbd
000002f0: 26fd 40bd 02dc efbc bf2e de3d 3b80 0c3d
00000300: e8d0 a6bd d4fd 37bd 9ded 39bd 63c2 d43d
00000310: 1bd5 26bc e5d9 64bd c14c 533d 65e5 153d
00000320: f063 9f3d 5b96 12bd a5ca bdbd 839d 86bc
00000330: 1b0f cbbd 9dc3 a73d 3841 2b3d c929 ecb8
00000340: 06ff 04bd fe35 a5ba ef7e 6fbd d182 afbc
00000350: be09 163d ac94 dabd c1ee 80bd 0148 8fbc
00000360: d2c1 10bd a668 73bd c7dd b63d 32a1 973d
00000370: a1f5 a8bb a704 b5bc 7001 bbbd 8fcf a6bd
00000380: 6459 b53d a223 283d 5d80 803d f164 dd3d
00000390: bb5a 15bc d7e8 22bd 0a60 1a3d 2d3d 923c
000003a0: be8c 38b9 db06 ccbd 94f3 a13d 9d9c d23d
000003b0: 8793 453c 0d81 20bd a542 e2bc 19ea db3d
000003c0: 8edc c6bd 88c5 be3d 3112 39bd cfce aa3d
000003d0: 0a23 ca3d a079 b83d 589d f7bc 3b1c f9bc
000003e0: d7c8 a7bc 5ac3 f4bc 5857 213c 73fa ac3c
000003f0: 4941 dc3d ee4d cb3d 670b 763d aeb3 a33d

convs.0.lin_l.bias f4 [128]
0.08024563 0.06877194 0.012786286 -0.06661084 0.009391539 0.006470045 0.028374381 0.040810257
0.023188435 0.05837717 -0.047513053 0.06986463 -0.0711355 0.08075124 -0.06603595 0.058129463
0.040978175 -0.111470014 0.06760994 -0.022948625 0.07804219 0.023255045 0.08765801 0.10467489
-0.074413754 -0.069293626 -0.024018733 0.016670493 -0.036554888 0.056881033 -0.10253255 0.102116786
-0.1073764 0.033660434 -0.021958975 -0.0054215426 -0.10066358 0.06988385 0.10220133 -0.008041077
-0.07755258 0.0342506 0.078779936 0.0076823244 0.1089915 -0.00856673 -0.06266249 0.08012236
0.06782965 0.09373952 -0.026267042 -0.014555269 0.07896742 0.015621424 0.003336055 -0.086735055
-0.10657833 0.022329928 0.025974452 -0.0137191275 -0.03546845 0.060562868 -0.06367098 -0.036924556
0.09806634 0.08934591 0.019973647 0.06863706 0.0035849132 -0.051422015 -0.03320478 -0.049969353
-0.09117414 -0.026883995 0.10470372 -0.01677387 -0.018827815 -0.013370527 0.03408151 -0.036982734
-0.03501723 0.010659205 -0.0387668 0.067033544 -0.04342261 0.053082824 0.104936905 0.06346028
0.10717064 0.07087255 -0.070352145 0.01942295 -0.08713105 0.051509142 -0.11403895 -0.07234311
0.0045752125 0.01215017 0.032274134 0.002990005 0.061564382 -0.1063784 0.029723814 0.08241639
-0.069643125 0.0028580693 0.039524406 -0.020979077 -0.056167353 0.0443623 -0.019623866 -0.111710005
0.058130194 -0.045060176 -0.09723954 -0.093254864 0.07961383 0.09510591 0.057388984 -0.05904661
0.053090196 -0.084085435 0.10060311 -0.05797702 -0.06985179 0.103348434 0.00020901572 -0.025759732
00000000: d257 a43d 4ed8 8c3d 927d 513c 446b 88bd
00000010: f8de 193c ac02 d43b 6471 e83c a828 273d
00000020: acf5 bd3c e61c 6f3d 0c9d 42bd 3015 8f3d
00000030: 7daf 91bd e860 a53d db3d 87bd 2919 6e3d
00000040: bbd8 273d 644a e4bd 1577 8a3d c1fe bbbc
00000050: 95d4 9f3d 5d81 be3c 0b86 b33d ca5f d63d
00000060: 3d66 98bd d1e9 8dbd efc2 c4bc 8f90 883c
00000070: 94ba 15bd 16fc 683d 96fc d1bd 9b22 d13d
00000080: 28e8 dbbd 86df 093d 4fe3 b3bc 32a7 b1bb
00000090: b528 cebd 441f 8f3d ee4e d13d b9be 03bc
000000a0: e3d3 9ebd 5b4a 0c3d 6057 a13d 02bc fb3b
000000b0: f036 df3d 785b 0cbc 3155 80bd 3117 a43d
000000c0: 46ea 8a3d 81fa bf3d fb2d d7bc 3979 6ebc
000000d0: acb9 a13d 00f1 7f3c b7a1 5a3b 26a2 b1bd
000000e0: bd45 dabd 41ed b63c 60c8 d43c 31c6 60bc
000000f0: 5e47 11bd c510 783d ee65 82bd 343e 17bd
00000100: 01d7 c83d fdfa b63d c69f a33c 9691 8c3d
00000110: ddf0 6a3b e49f 52bd bc01 08bd aaac 4cbd
00000120: 82b9 babd d33b dcbc e76e d63d 5b69 89bc
00000130: ca3c 9abc 0e10 5bbc 0e99 0b3d 357b 17bd
00000140: 3a6e 0fbd f2a3 2e3c f0c9 1ebd e248 893d
00000150: e8db 31bd 606d 593d 29e9 d63d 77f7 813d
00000160: 487c db3d a125 913d c914 90bd e11c 9f3c
00000170: c471 b2bd 40fb 523d 418d e9bd a028 94bd
00000180: aaeb 953b 8211 473c e231 043d f6f3 433b
00000190: ef2a 7c3d ebdc d9bd 5b7f f33c edc9 a83d
000001a0: 0ea1 8ebd 724e 3b3b 58e4 213d 50dc abbc
000001b0: bd0f 66bd 3eb5 353d 3bc2 a0bc 37c8 e4bd
000001c0: ed19 6e3d 0591 38bd 8625 c7bd 68fc bebd
000001d0: 930c a33d e3c6 c23d b610 6b3d dcda 71bd
000001e0: 1b75 593d fc34 acbd 0109 ce3d 5079 6dbd
000001f0: 750e 8fbd 58a8 d33d 3b2b 5b39 1306 d3bc

convs.0.lin_r.weight f4 [128, 84]
-0.07595093 0.06854508 0.028705336 -0.041007638 -0.11860552 -0.035316136 0.050881654 0.08998638
0.111228555 0.08624932 0.008956168 0.015828324 0.032410678 -0.009256904 0.085780226 0.043491326
-0.08506986 -0.060592856 -0.073869616 -0.05329043 0.088372946 0.10153316 0.1059841 0.059328083
-0.0014515512 -0.118739255 0.089354664 0.0103123505 0.015679235 -0.007564958 -0.09527602 -0.020775719
0.035378445 -0.08006325 -0.04908624 0.035674445 -0.055541024 0.07361986 0.051822532 0.048661213
0.06637529 0.048500657 -0.062521175 0.11366991 -0.055650685 -0.027186856 -0.03718412 0.051154662
-0.008372071 0.079006106 -0.10366841 0.0786656 -0.02490123 0.098936036 -0.07354367 -0.09711948
-0.053573407 0.095827825 -0.07468306 0.0862116 0.036176443 -0.07072376 0.046441067 0.10132789
-0.017508637 0.08500411 0.029286485 0.015372006 -0.03105108 -0.04720314 -0.07024545 -0.022402663
-0.11745658 -0.030996732 0.04707488 0.08070395 -0.09045466 0.042834826 -0.11293276 -0.08580892
0.0322612 -0.05583433 0.09673085 0.09921216 0.03991568 -0.035347868 -0.085514285 0.06900399
0.102219164 -0.025871925 -0.074638255 0.07796047 0.07100489 -0.009982811 0.05608027 0.045746814
0.07413088 0.096143655 0.05246775 0.024944497 0.057475384 -0.066631295 0.019307785 0.09138516
0.050607108 0.038191013 0.03931522 0.028521217 0.051066548 0.020284006 0.08992959 0.09492851
-0.09355753 0.05470467 -0.032016426 -0.057738498 0.040441304 -0.02777127 0.06431746 -0.019684587
-0.08594529 -0.008339777 0.076534845 -0.038424283 -0.020497138 0.019099563 -0.0011707474 -0.10703898
0.07564134 0.05882923 0.0029159223 -0.01526045 0.10407918 0.041734338 -0.08745707 -0.011315299
0.0052874503 0.047822125 0.06870449 -0.09393879 0.081987664 0.038737096 0.027633874 0.028539043
-0.067563154 0.010929741 0.07510529 0.097841844 0.10341101 0.008510468 -0.06546724 0.047589377
-0.022952782 0.06337735 -0.04941273 0.03916375 -0.09687816 -0.10302449 -0.015541015 0.005295695
0.098238066 -0.014288575 0.041421503 -0.062015336 0.022352338 -0.053983103 -0.03182223 0.08914887
0.11567492 0.036341976 -0.01288923 -0.06235123 -0.055404253 0.07035515 -0.016326852 -0.02587071
-0.10076413 -0.028613154 -0.10167526 0.03164095 -0.09736381 -0.09860268 -0.030101856 -0.064270444
-0.07703528 0.0063007385 0.05440498 -0.009139152 0.02798705 0.03817661 -0.031327296 -0.057386942
-0.08936965 -0.054727234 0.069110066 -0.06633612 0.035603654 -0.10594784 -0.10331271 -0.011405032
0.0041078553 -0.0047800485 0.06232433 0.028061878 -0.08972311 -0.091899075 0.011607967 -0.044942528
0.09318866 0.08768711 -0.023172008 0.014894814 -0.04453471 0.014260192 0.035779618 0.019705035
0.067410864 -0.02139575 0.107296124 0.043336913 -0.04943431 0.061520994 -0.09464063 -0.07732201
0.009823906 0.043117665 -0.06346259 -0.04646915 0.02359318 -0.033951692 0.0155608 -0.05495184
0.045992337 -0.056264564 -0.08287023 -0.042978477 -0.04295659 -0.01472802 -0.03280752 -0.09593071
-0.024248758 -0.026218057 -0.0022408185 -0.10270476 0.0067395116 -0.007960802 0.05405293 -0.07890469
0.043640725 -0.081385784 0.08137023 0.08924932 -0.087653056 0.090136155 -0.10732732 0.005015703
00000000: 298c 9bbd 5d61 8c3d 7427 eb3c a0f7 27bd
00000010: 73e7 f2bd a7a7 10bd 4869 503d c74a b83d
00000020: cccb e33d 7ca3 b03d e4bc 123c 67aa 813c
00000030: 0fc1 043d 45aa 17bc 8bad af3d f623 323d
00000040: 1b39 aebd 3730 78bd f448 97bd 1147 5abd
00000050: e0fc b43d 9ef0 cf3d 310e d93d 0102 733d
00000060: fa41 beba 912d f3bd 94ff b63d 22f5 283c
00000070: bd71 803c 78e3 f7bb 1320 c3bd d731 aabc
00000080: fde8 103d 34f8 a3bd a70e 49bd 5e1f 123d
00000090: fc7e 63bd 02c6 963d dd43 543d fb50 473d
000000a0: c5ef 873d a0a8 463d 1a0b 80bd c5cb e83d
000000b0: f9f1 63bd f8b6 debc 604e 18bd 8d87 513d
000000c0: 032b 09bc f4cd a13d 1a50 d4bd 6e1b a13d
000000d0: aafd cbbc fa9e ca3d 109e 96bd 94e6 c6bd
000000e0: ca6f 5bbd 6141 c43d 6ff3 98bd b58f b03d
000000f0: c02d 143d 9ed7 90bd fd38 3e3d ff84 cf3d
00000100: 466e 8fbc a316 ae3d 36ea ef3c deda 7b3c
00000110: d65e febc 1458 41bd d9dc 8fbd ca85 b7bc
00000120: 138d f0bd dcec fdbc 97d1 403d 1d48 a53d
00000130: 4b40 b9bd 9273 2f3d 4a49 e7bd 96bc afbd
00000140: 5224 043d 8ab2 64bd d31a c63d bf2f cb3d
00000150: a07e 233d edc8 10bd 1d22 afbd f751 8d3d
00000160: 4858 d13d 5cf1 d3bc f1db 98bd bda9 9f3d
00000170: 036b 913d f28e 23bc 6db4 653d 0361 3b3d
00000180: eed1 973d f7e6 c43d 6ce8 563d 6758 cc3c
00000190: 4f6b 6b3d fd75 88bd 5c2b 9e3c 2528 bb3d
000001a0: 6649 4f3d 2e6e 1c3d ff08 213d 54a5 e93c
000001b0: 282b 513d a52a a63c 012d b83d e169 c23d
000001c0: 179b bfbd 0112 603d a823 03bd 347f 6cbd
000001d0: c8a5 253d 9380 e3bc dfb8 833d 9241 a1bc
000001e0: 1604 b0bd 8fa3 08bc 4dbe 9c3d c862 1dbd
000001f0: 9de9 a7bc b076 9c3c c473 99ba 4137 dbbd
00000200: d9e9 9a3d ebf6 703d 0f19 3f3b f706 7abc
00000210: 7727 d53d a0f1 2a3d b11c b3bd ce63 39bc
00000220: 5942 ad3b 22e1 433d f1b4 8c3d fb62 c0bd
00000230: 26e9 a73d caaa 1e3d 6f60 e23c b6ca e93c
00000240: 8d5e 8abd a812 333c cdd0 993d 4e61 c83d
00000250: 27c9 d33d 7d6f 0b3c b013 86bd 14ed 423d
00000260: 7907 bcbc fccb 813d 0165 4abd 2b6a 203d
00000270: 0f68 c6bd 81fe d2bd be9f 7ebc 8287 ad3b
00000280: 0a31 c93d a11a 6abc 98a9 293d cb03 7ebd
00000290: 401c b73c 631d 5dbd 0758 02bd af93 b63d
000002a0: f9e6 ec3d 53db 143d 592d 53bc 0164 7fbd
000002b0: 92ef 62bd 5c16 903d e4bf 85bc d0ee d3bc
000002c0: 6d5d cebd 2266 eabc 1e3b d0bd f199 013d
000002d0: ad66 c7bd 34f0 c9bd 2b98 f6bc 39a0 83bd
000002e0: acc4 9dbd 6d76 ce3b c2d7 5e3d 62bc 15bc
000002f0: 1945 e53c 145f 1c3d 0d51 00bd 920e 6bbd
00000300: 6f07 b7bd aa29 60bd 9489 8d3d 3bdb 87bd
00000310: 23d5 113d 2efb d8bd 9d95 d3bd 2cdc 3abc
00000320: 309b 863b f4a1 9cbb cc47 7f3d 06e2 e53c
00000330: c0c0 b7bd 9535 bcbd 582f 3e3c a815 38bd
00000340: b2d9 be3d 4d95 b33d 39d3 bdbc 6109 743c
00000350: 076a 36bd 95a3 693c a68d 123d 746c a13c
00000360: b50e 8a3d 2446 afbc 12be db3d 0c82 313d
00000370: a27b 4abd 70fd 7b3d f2d2 c1bd 015b 9ebd
00000380: 73f4 203c 269c 303d adf8 81bd 6f56 3ebd
00000390: 7c46 c13c ee10 0bbd baf2 7e3c 2e15 61bd
000003a0: 7662 3c3d ac75 66bd deb7 a9bd 330a 30bd
000003b0: 40f3 2fbd cb4d 71bc 2e61 06bd 5277 c4bd
000003c0: 55a5 c6bc 40c7 d6bc b2da 12bb e056 d2bd
000003d0: 1fd7 dc3b 066e 02bc 9b66 5d3d c898 a1bd
000003e0: 9ec0 323d 97ad a6bd 6fa5 a63d 59c8 b63d
000003f0: 7283 b3bd 4e99 b83d 6dce dbbd c45a a43b

convs.1.lin_l.weight f4 [128, 128]
-0.07113456 -0.08669645 0.078721344 0.0331445 0.028857535 -0.042788103 -0.041838873 0.009857132
0.07523723 0.026279634 0.060175527 0.04851925 0.062721565 -0.07548385 -0.07700188 -0.07726996
0.055200033 0.06186823 0.0657744 -0.03268504 0.023651807 0.01945916 -0.025835088 0.04352669
-0.0807389 -0.0775561 -0.013081338 0.076470345 -0.058634553 0.013167581 0.07542833 0.021791106
0.04264514 -0.007438242 0.0516815 -0.042035457 -0.077430196 0.062087093 0.041656327 0.056944106
-0.00082949275 -0.08901497 -0.011430898 -0.0068293917 -0.06622091 -0.03662152 -2.4820902e-05 -0.078598574
-0.044423405 -0.03814941 -0.023543073 -0.059317637 -0.043980263 -0.045350667 -0.08518286 -0.03384853
-0.023492575 -0.036727812 0.05116254 0.04246679 -0.043080304 -0.028248273 -0.019158611 0.070630826
-0.0815907 -0.05001303 0.049935117 -0.083171934 -0.009064639 -0.082955495 -0.032644905 0.09395068
-0.031009367 -0.0817729 0.073112495 -0.029037599 -0.015462763 0.023909606 0.033196922 0.08330479
0.050754532 0.040921338 0.043272868 0.019804006 -0.036004 0.041072384 -0.020740861 -0.0023178132
-0.07059136 0.024680188 -0.029210432 0.047270928 -0.029424358 0.054841157 -0.044931635 -0.08303808
-0.05327904 -0.03914817 0.035784718 -0.008451895 0.07662991 -0.1032145 0.074514866 0.06626298
0.03091007 -0.053230297 0.04198249 0.027775351 -0.067086115 -0.032506324 -0.015691537 -0.06096255
-0.0211496 0.060264654 -0.06733382 -0.03139186 0.040584277 -0.04507888 -0.06687584 0.07531759
-0.017246993 0.005057845 0.0681201 0.041662812 0.05750284 0.0657385 -0.073778495 0.048242
-0.073581025 -0.012318336 -0.089381255 -0.03243154 0.06835089 -0.028476413 -0.09292848 0.0035790813
-0.005693456 -0.078996345 0.069666855 0.059916984 0.046731923 0.064851284 0.016060723 -0.053764105
-0.050170656 0.018128414 -0.00011171942 -0.031161513 0.054829363 -0.05205114 0.028440643 -0.06388414
0.064111635 0.07007578 0.06628627 -0.059768293 0.022840057 -0.036143433 0.029298099 0.014591818
0.066787794 -0.06624895 -0.08938002 0.01566108 -0.00722113 0.018479705 0.031169415 -0.06557671
0.009644722 0.06299246 0.056175705 -0.027841901 0.0118633695 -0.07897944 -0.09218723 0.06780108
-0.010809492 -0.05339936 -0.052618325 -0.030121757 0.0486571 -0.0013406378 0.012413031 -0.038353074
-0.06272485 -0.08455062 -0.0016249593 0.037261967 -0.077589534 0.032072365 0.08063795 -0.06869845
0.037785247 0.062233873 -0.07748539 -0.056216 0.05337423 0.03217505 0.06251104 -0.08019643
-0.03742378 -0.09258823 0.050325226 0.020230504 -0.034748584 -0.08519854 -0.038597066 -0.019691512
0.039691523 0.037612274 0.05045581 -0.044680152 -0.025629643 -0.08513787 0.05767078 -0.08353905
-0.08089085 -0.050821677 -0.08658622 -0.040246338 -0.04306685 -0.0009915371 0.06540571 0.07314904
-0.084361926 0.07178949 -0.056658328 0.08194947 0.055282645 -0.054650955 0.08072051 0.038197845
-0.0025438075 0.009607775 -0.030663809 -0.089553006 0.012311242 0.05756643 -0.027316561 -0.021822635
0.030653376 0.027291946 -0.025645476 -0.070693165 -0.08354248 -0.034264553 0.04897438 0.01997195
-0.010975374 -0.04455329 0.07652928 0.0078692045 -0.015681991 -0.052420918 -0.06817282 -0.05501719
00000000: ffae 91bd e98d b1bd a838 a13d 87c2 073d
00000010: a366 ec3c 9442 2fbd 3d5f 2bbd cf7f 213c
00000020: fa15 9a3d 6348 d73c 9d7a 763d 1fbc 463d
00000030: 2a74 803d 4797 9abd 29b3 9dbd b63f 9ebd
00000040: 6e19 623d 8b69 7d3d bbb4 863d c0e0 05bd
00000050: 6fc1 c13c d168 9f3c 1ba4 d3bc 0b49 323d
00000060: 705a a5bd bcd5 9ebd 1c53 56bc 7c9c 9c3d
00000070: c92a 70bd d6bc 573c 2b7a 9a3d 4383 b23c
00000080: acac 2e3d 7fbc f3bb fbaf 533d 5f2d 2cbd
00000090: b993 9ebd 094f 7e3d d39f 2a3d 393e 693d
000000a0: 5172 59ba 7b4d b6bd a948 3bbc 17c9 dfbb
000000b0: d49e 87bd 7200 16bd 7b36 d0b7 4af8 a0bd
000000c0: 51f5 35bd 8e42 1cbd 67dd c0bc 0df7 72bd
000000d0: a624 34bd 9fc1 39bd 5a74 aebd c2a4 0abd
000000e0: 8073 c0bc e76f 16bd d08f 513d a8f1 2d3d
000000f0: f974 30bd ec68 e7bc 85f2 9cbc e5a6 903d
00000100: 0619 a7bd 77da 4cbd c488 4c3d 0c56 aabd
00000110: da83 14bc 92e4 a9bd aab6 05bd 3769 c03d
00000120: 5b07 febc 8d78 a7bd 01bc 953d 42e0 edbc
00000130: 8757 7dbc 14de c33c 7ff9 073d b49b aa3d
00000140: fce3 4f3d 229d 273d e43e 313d 033c a23c
00000150: ee78 13bd 843b 283d bde8 a9bc 74e6 17bb
00000160: 3492 90bd 1b2e ca3c b74a efbc 299f 413d
00000170: 5a0b f1bc 1fa1 603d 3c0a 38bd de0f aabd
00000180: 1f3b 5abd d559 20bd ff92 123d d179 0abc
00000190: 24f0 9c3d 2062 d3bd 409b 983d e3b4 873d
000001a0: 1d37 fd3c 0308 5abd d5f5 2b3d 2289 e33c
000001b0: 7264 89bd 5a25 05bd 8a8b 80bc deb3 79bd
000001c0: ed41 adbc 12d8 763d 50e6 89bd c094 00bd
000001d0: b33b 263d a2a4 38bd 33f6 88bd 1c40 9a3d
000001e0: 9149 8dbc 47bc a53b 8d82 8b3d a0a6 2a3d
000001f0: 1988 6b3d e8a1 863d 2e19 97bd 6799 453d
00000200: a6b1 96bd d9d2 49bc 850d b7bd efd6 04bd
00000210: 8dfb 8b3d 5e47 e9bc 4951 bebd 058f 6a3b
00000220: 2c90 babb d6c8 a1bd 7fad 8e3d 836b 753d
00000230: f969 3f3d c0d0 843d c791 833c c037 5cbd
00000240: bf7f 4dbd 0a82 943c e84a eab8 6e46 ffbc
00000250: c194 603d 9433 55bd 5afc e83c b0d5 82bd
00000260: f64c 833d e483 8f3d 19c1 873d 99cf 74bd
00000270: 121b bb3c 230b 14bd 9102 f03c 8512 6f3c
00000280: 0ac8 883d 88ad 87bd df0c b7bd aa4b 803c
00000290: 3b9f ecbb c062 973c 0057 ff3c 154d 86bd
000002a0: e504 1e3c 3102 813d 7f18 663d b314 e4bc
000002b0: 945e 423c f9bf a1bd a9cc bcbd 4bdb 8a3d
000002c0: 4c1a 31bc 4ab9 5abd 5086 57bd e7c1 f6bc
000002d0: ab4c 473d 57b8 afba 0760 4b3c 1d18 1dbd
000002e0: e375 80bd e028 adbd 96fc d4ba 01a0 183d
000002f0: 43e7 9ebd 505e 033d 8225 a53d c6b1 8cbd
00000300: b4c4 1a3d f2e8 7e3d a9b0 9ebd c042 66bd
00000310: f09e 5a3d fcc9 033d ca05 803d 073e a4bd
00000320: ad49 19bd e69e bdbd d321 4e3d 71ba a53c
00000330: 8854 0ebd 927c aebd f517 1ebd 1850 a1bc
00000340: 9493 223d 540f 1a3d c0aa 4e3d 8902 37bd
00000350: 42f5 d1bc c35c aebd 3238 6c3d 8516 abbd
00000360: 1aaa a5bd 642a 50bd 1e54 b1bd 58d9 24bd
00000370: de66 30bd 77f6 81ba 6ef3 853d 2acf 953d
00000380: f2c5 acbd 5e06 933d 9012 68bd 20d5 a73d
00000390: 0e70 623d aed9 5fbd cb50 a53d 5875 1c3d
000003a0: 02b6 26bb ee69 1d3c ab32 fbbc 9167 b7bd
000003b0: 17b5 493c c7ca 6b3d fbc6 dfbc 62c5 b2bc
000003c0: ca1c fb3c 5c93 df3c 7616 d2bc 94c7 90bd
000003d0: 5218 abbd fd58 0cbd 5c99 483d 379c a33c
000003e0: 0ed2 33bc 837d 36bd 62bb 9c3d d6ed 003c
000003f0: 8577 80bc 51b7 56bd 319e 8bbd b459 61bd

convs.1.lin_l.bias f4 [128]
0.05296014 -0.015793983 0.0277975 0.0073549594 0.042921044 -0.0032788354 0.028957842 0.06717189
0.029524038 0.00094770134 -0.012484314 -0.08285734 0.06430292 0.04610309 0.077803336 -0.06285654
0.06358988 -0.0476286 -0.08569677 -0.003603201 -0.059534166 -0.01616832 0.04920512 0.005221957
0.07524456 0.027428497 0.060945634 -0.08745654 0.029978715 -0.028965913 0.07107165 0.07214598
-0.038829323 -0.0257035 -0.048867334 0.041367736 0.07452551 -0.03422752 -0.053355105 -0.016455097
0.0031662101 -0.080574125 0.009561838 0.046874586 0.02123992 -0.006144781 0.008608499 0.02547534
0.04272654 0.07548916 -0.025810717 0.0804867 -0.053386334 -0.036643136 0.051374897 -0.08556229
0.038772564 -0.011465086 0.068745166 -0.011371943 -0.08229288 -0.010283002 0.071144305 0.05726356
0.07352691 -0.07010683 0.030712873 0.025528645 -0.08632012 -0.04107521 0.061643712 0.007863494
0.07288021 -0.05958067 -0.061425082 0.02575397 0.06227871 -0.044675622 -0.0023692097 0.00842174
-0.09050379 0.03844342 -0.028374238 -0.05080127 0.076905705 0.06390111 -0.040546548 0.007999368
0.09033542 0.044106822 -0.019341117 0.025852492 0.048753913 0.054734908 -0.04238338 0.021783622
0.019166492 -0.016632149 0.018065512 0.073967494 0.026622163 0.027214639 -0.06888653 -0.034852784
-0.038242806 0.04261635 -0.07204081 0.06700205 -0.08089122 -0.052947234 -0.014384952 -0.023063062
0.02121925 -0.074453875 -0.012152765 -0.027637174 0.0044357944 0.036137003 0.06857614 0.06886778
-0.009528055 0.037396472 -0.06887713 -0.06910577 0.052488126 -0.039268196 0.06771153 0.02354722
00000000: bbec 583d 6262 81bc 95b7 e33c df01 f13b
00000010: facd 2f3d bbe1 56bb ff38 ed3c 6a91 893d
00000020: 65dc f13c 296f 783a 028b 4cbc 1cb1 a9bd
00000030: 40b1 833d 98d6 3c3d 5b57 9f3d eeba 80bd
00000040: 693b 823d 3516 43bd ca81 afbd ae23 6cbb
00000050: 19da 73bd 6d73 84bc 4f8b 493d f31c ab3b
00000060: d219 9a3d bab1 e03c 21a2 793d 6a1c b3bd
00000070: ec95 f53c ec49 edbc 038e 913d 46c1 933d
00000080: 7f0b 1fbd 2590 d2bc 1d29 48bd 3771 293d
00000090: d5a0 983d 2832 0cbd e28a 5abd d7cc 86bc
000000a0: 3180 4f3b 0c04 a5bd 41a9 1c3c 91ff 3f3d
000000b0: 57ff ad3c 295a c9bb a90a 0d3c a9b1 d03c
000000c0: 0602 2f3d 109a 9a3d ff70 d3bc 36d6 a43d
000000d0: a1ab 5abd 1d17 16bd 7c6e 523d 483b afbd
000000e0: fbcf 1e3d 0ed8 3bbc 44ca 8c3d 6351 3abc
000000f0: 2b89 a8bd 097a 28bc 1bb4 913d 328d 6a3d
00000100: 4795 963d 2b94 8fbd 9099 fb3c 7321 d13c
00000110: 9ac8 b0bd 7b3e 28bd 1e7e 7c3d e2d5 003c
00000120: 3842 953d dc0a 74bd de98 7bbd fdf9 d23c
00000130: f617 7f3d c9fd 36bd be44 1bbb 56fb 093c
00000140: 0d5a b9bd d976 1d3d 1771 e8bc fe14 50bd
00000150: bd80 9d3d 96de 823d 2314 26bd c80f 033c
00000160: c701 b93d 5ba9 343d 4371 9ebc 9bc8 d33c
00000170: 2fb2 473d b631 603d 329a 2dbd 9173 b23c
00000180: 0c03 9d3c 2540 88bc 20fe 933c 457c 973d
00000190: b916 da3c 3cf1 de3c 6214 8dbd cbc1 0ebd
000001a0: 7da4 1cbd 7b8e 2e3d 228a 93bd 5f38 893d
000001b0: 4caa a5bd 33df 58bd ddae 6bbc bfee bcbc
000001c0: fed3 ad3c 467b 98bd 641c 47bc 5b67 e2bc
000001d0: 245a 913b 6504 143d a671 8c3d 8d0a 8d3d
000001e0: 8f1b 1cbc 0b2d 193d 740f 8dbd 5387 8dbd
000001f0: cafd 563d b0d7 20bd 58ac 8a3d 19e6 c03c

convs.1.lin_r.weight f4 [128, 128]
0.08730026 0.023319045 -0.025223617 0.030512685 0.10381242 -0.09714458 0.06687069 0.092230365
0.024565596 -0.060337365 -0.05837347 0.041185055 0.07449147 0.06320491 0.016340809 0.05874799
-0.040422026 -0.07362858 -0.08956823 0.023677597 0.033793315 0.00575185 -0.07094899 -0.023394817
0.06086903 0.05083635 -0.06817026 0.023003932 -0.026274169 0.034900706 0.002064825 0.032165367
-0.07443447 0.020816727 -0.060131826 0.061205048 0.02859637 0.024036549 0.08538026 0.021257974
0.059102573 0.022482239 0.058871046 -0.041572038 0.07349648 0.0049959733 -0.03786062 -0.09613698
-0.015069464 0.086227246 -0.044925865 0.0047903084 0.07384287 -0.016881974 0.065681346 -0.04503966
-0.028289309 -0.023123765 0.0067491075 0.07200805 -0.0093968045 -0.02675849 -0.08003699 -0.077790126
0.03226011 -0.05826049 -0.05613431 0.042029828 0.010807437 -0.07304739 0.031548984 -0.04955681
-0.07174864 -0.066145785 0.044467118 -0.030577991 -0.026061896 0.018050047 0.08724811 0.02461393
-7.201428e-05 -0.042700652 -0.0417404 0.0074849096 0.060888212 -0.05079153 -0.08824138 -0.013100316
0.011015536 0.09447785 0.036695145 -0.0059475387 0.06867779 -0.07722025 -0.007378054 -0.069763646
-0.0137386145 -0.04768858 0.06650855 0.024139227 0.046287473 0.06626049 0.07841889 -0.037148975
-0.040644616 0.09528684 0.004738147 -0.026144307 0.048500706 -0.018588293 0.023111863 0.047563463
0.0010424361 0.0077737146 -0.03153246 -0.06590206 -0.06116699 -0.016011361 -0.054610398 -0.024783848
-0.06920547 -0.045422856 -0.09690053 -0.017424276 0.100292325 -0.0623487 -0.022105461 0.016128331
-0.002260153 0.06088234 0.03296005 -0.08310619 -0.01119312 0.04897946 -0.03517638 -0.03109236
0.0003272053 0.060695857 0.02457559 0.0066932663 0.0077636056 -0.013199774 0.080380365 0.06353457
0.036101285 0.024272302 0.0024298287 -0.049629536 0.011494428 -0.0005045319 -0.021929344 -0.07449513
0.0510576 0.06178017 -0.057762973 -0.061999537 -0.033481065 -0.043178372 -0.014045739 -0.046320494
-0.041874714 -0.06035358 0.018507095 0.062917374 0.032382518 0.063235514 -0.04593604 -0.061007846
-0.038026147 0.06822047 -0.0108565595 0.06208432 0.014694823 0.024580555 -0.027709773 -0.024856968
0.011066696 -0.047817983 -0.03540827 0.0012097092 0.020201689 -0.05428885 0.07137914 -0.08974226
0.06542471 0.027234416 -0.08884561 0.057834283 -0.075264886 -0.039908543 -0.04446647 0.014338972
0.031413034 0.063113004 -0.099827506 -0.018685486 0.058750726 0.04161262 -0.008138378 -0.01481109
-0.060526278 0.0012646252 -0.042755477 0.055420473 -0.02150271 -0.05734299 0.041001543 -0.013929945
0.07497544 0.038139824 -0.064523414 0.017110905 -0.09194053 -0.029425265 0.025308281 0.024975386
-0.071581855 0.02637636 0.039227102 -0.055067867 0.005671217 0.054048978 0.052684855 0.037037533
0.06651026 -0.03215638 -0.08655621 -0.0020948679 -0.08554112 -0.036829926 -0.030884402 -0.044615272
-0.034808107 -0.059916057 0.061712768 -0.09041298 0.06718088 -0.046300348 -0.023952441 0.055401467
-0.081804916 0.015381325 0.07132448 0.0498704 -0.06793304 0.08276557 -0.054062042 -0.09824725
0.0013543064 -0.09042649 0.02638156 -0.027169531 -0.0220404 -0.039905302 -0.014809614 -0.09024705
00000000: 7bca b23d 9507 bf3c c2a1 cebc bdf5 f93c
00000010: 9b9b d43d bdf3 c6bd 80f3 883d 46e3 bc3d
00000020: ca3d c93c 5024 77bd 0519 6fbd a9b1 283d
00000030: fc8e 983d 9371 813d 29dd 853c bba1 703d
00000040: 9191 25bd 95ca 96bd 8c6f b7bd 85f7 c13c
00000050: dc6a 0a3d 047a bc3b b44d 91bd 7da6 bfbc
00000060: ce51 793d c739 503d d99c 8bbd be72 bc3c
00000070: ed3c d7bc 0bf4 0e3d 0452 073b d5bf 033d
00000080: 1971 98bd d787 aa3c ca4c 76bd 25b2 7a3d
00000090: ef42 ea3c 4ce8 c43c d9db ae3d 3425 ae3c
000000a0: 8a15 723d ac2c b83c c422 713d 7147 2abd
000000b0: 5385 963d 43b5 a33b bd13 1bbd 77e3 c4bd
000000c0: eae5 76bc e997 b03d 2f04 38bd 05f8 9c3b
000000d0: ee3a 973d 114c 8abc f183 863d 827b 38bd
000000e0: fbbe e7bc 0d6e bdbc 9e27 dd3b f578 933d
000000f0: 0ef5 19bc 9f34 dbbc 6fea a3bd 6e50 9fbd
00000100: 2d23 043d 8da2 6ebd 17ed 65bd 7827 2c3d
00000110: ad11 313c df99 95bd 8239 013d 15fc 4abd
00000120: f3f0 92bd 7177 87bd 2723 363d b27e fabc
00000130: c27f d5bc b1dd 933c 23af b23d 27a3 c93c
00000140: 5f06 97b8 e1e6 2ebd fbf7 2abd f943 f53b
00000150: eb65 793d c80a 50bd e6b7 b4bd b5a2 56bc
00000160: 827a 343c 9a7d c13d a64d 163d 92e3 c2bb
00000170: f1a6 8c3d a725 9ebd 9ac3 f1bb 3ee0 8ebd
00000180: ed17 61bc 1a55 43bd a235 883d a1bf c53c
00000190: ef97 3d3d 94b3 873d 159a a03d 8629 18bd
000001a0: f87a 26bd bf25 c33d 7542 9b3b 962c d6bc
000001b0: ada8 463d 7a46 98bc 1755 bd3c e8d1 423d
000001c0: 5aa2 883a a5ba fe3b 2e28 01bd a9f7 86bd
000001d0: 3d8a 7abd 422a 83bc 27af 5fbd 7f07 cbbc
000001e0: 99bb 8dbd 510d 3abd c973 c6bd 5bbd 8ebc
000001f0: 1066 cd3d 5a61 7fbd 8316 b5bc 901f 843c
00000200: 131f 14bb c35f 793d 1e01 073d 9433 aabd
00000210: 5963 37bc b09e 483d 1c15 10bd 68b5 febc
00000220: c18c ab39 389c 783d bf52 c93c 3053 db3b
00000230: d865 fe3b dd43 58bc 769e a43d 6a1e 823d
00000240: f1de 133d b5d6 c63c c33d 1f3b 5748 4bbd
00000250: 2053 3c3c 9042 04ba 2ba5 b3bc e790 98bd
00000260: c621 513d 340d 7d3d de98 6cbd 3af3 7dbd
00000270: 7123 09bd cedb 30bd 1920 66bc 8fba 3dbd
00000280: d284 2bbd 5135 77bd 319c 973c d3da 803d
00000290: 88a3 043d 9f81 813d 6e27 3cbd 5de3 79bd
000002a0: 4ec1 1bbd 2cb7 8b3d b6df 31bc 214c 7e3d
000002b0: 8ec2 703c 295d c93c 9bff e2bc d7a0 cbbc
000002c0: 1651 353c cadc 43bd 4308 11bd 1b8f 9e3a
000002d0: 037e a53c fc5d 5ebd 3a2f 923d caca b7bd
000002e0: 64fd 853d b61a df3c b0f4 b5bd a4e3 6c3d
000002f0: 7a24 9abd 2477 23bd 7922 36bd 02ee 6a3c
00000300: f4aa 003d 6441 813d 5d72 ccbd 4e12 99bc
00000310: 9aa4 703d ff71 2a3d d556 05bc 37aa 72bc
00000320: 67ea 77bd c8c1 a53a 5e20 2fbd 9400 633d
00000330: 7426 b0bc 7ce0 6abd 3cf1 273d 6d3a 64bc
00000340: b98c 993d 8138 1c3d da24 84bd 2b2c 8c3c
00000350: 514b bcbd 410d f1bc 5053 cf3c 2e99 cc3c
00000360: 8299 92bd 3c13 d83c 99ac 203d d88e 61bd
00000370: 9ed5 b93b 7662 5d3d 13cc 573d abb4 173d
00000380: 8836 883d 69b6 03bd 6244 b1bd 0d4a 09bb
00000390: 2f30 afbd fada 16bd 4901 fdbc 81be 36bd
000003a0: f292 0ebd 8a6a 75bd 87c6 7c3d 712a b9bd
000003b0: 2196 893d 6fa5 3dbd e937 c4bc a6ec 623d
000003c0: 5689 a7bd f401 7c3c 9212 923d e844 4c3d
000003d0: 7a20 8bbd ff80 a93d 2970 5dbd db35 c9bd
000003e0: fb82 b13a 8631 b9bd 241e d83c a392 debc
000003f0: 128e b4bc be73 23bd 06a4 72bc 72d3 b8bd

node_mlp.0.weight f4 [64, 128]
0.03250347 -0.0031476351 0.035463396 0.02205293 -0.053558167 0.014888622 -0.07122112 0.086066745
-0.04485099 0.006877642 0.04971356 0.056919087 -0.013563013 0.004664472 0.08740248 0.00925329
0.08503128 -0.037875354 0.06272463 -0.08107202 -0.018222494 -0.013825632 0.037317067 -0.07121222
-0.088503666 -0.032387406 0.03520319 0.076160714 -0.035053853 0.060029842 -0.008587579 0.029102076
0.021212574 -0.09543613 0.04379477 -0.037948098 -0.009546837 -0.0053578313 0.06562687 -0.022807691
0.03119997 0.0065058023 -0.038202006 -0.039828926 0.069938794 -0.010503224 -0.012466505 0.06329102
-0.033356447 -0.04590799 0.06963369 -0.009896388 0.07642525 0.036506835 -0.065982416 -0.07233252
0.06880233 0.07636092 0.022217536 -0.036980655 -0.04551868 -0.05931947 0.048345722 0.06513203
-0.07584571 -0.07069871 -0.08116847 0.08062957 0.07546871 0.07051924 -0.06422168 -0.038859945
-0.0013035821 0.06047515 -0.06486697 -0.016337244 -0.06855234 -0.050934948 0.0040221526 0.08101847
-0.04637151 -0.026047725 -0.02225252 -0.020350998 -0.064630754 0.0122379055 -0.012989186 -0.03611701
-0.0753141 -0.065390326 0.031716675 0.003158602 -0.007597279 -0.044656586 0.07992298 -0.044864286
0.03955067 -0.016314536 -0.05351275 -0.06576336 0.08311051 -0.0260282 0.05642929 0.011814554
-0.021275539 0.03492571 0.05770962 0.042242944 -0.033668827 -0.016182797 -0.063867636 0.09875595
-0.06653752 0.017318549 -0.05211849 -0.060518257 0.07687615 0.024830848 -0.08841551 -0.07228871
-0.03562725 0.0431345 -0.032865252 -0.03591488 -0.04855717 0.050763134 -0.008094855 0.05154376
-0.06633299 -0.022944283 -0.019401278 0.047534045 0.033691663 -0.05547528 0.047493406 -0.05214822
0.062045377 -0.01184594 -0.018356588 0.0010496177 0.043922927 0.041575514 -0.024846694 0.02665502
0.06277976 0.08622284 -0.036894605 0.023911962 0.08365316 0.0703612 -0.023810565 -0.06374208
-0.06301897 0.030923618 0.009550691 -0.08017122 0.086688936 -0.024586609 0.01613631 0.042755794
0.036879014 0.038481254 -0.013112812 0.061537478 -0.028901381 0.008778745 0.03812425 -0.065319054
0.030280184 -0.048153635 -0.07295227 0.068011895 0.0044639846 -0.026456648 0.06588111 -0.043223836
-0.0453402 0.0010868693 0.029690681 0.08902868 -0.055367865 -0.016534537 0.06453767 -0.07617062
-0.070232406 -0.0067382753 -0.02110959 0.06390107 -0.015076483 -0.0718156 -0.040073574 -0.06512656
0.025008377 0.04205072 0.06936759 0.05556804 -0.019451635 0.06901074 -0.03001878 0.086420044
0.077976935 -0.012372076 -0.026902014 0.016636966 0.0545107 -0.051812436 -0.056697115 -0.07771707
-0.096856676 0.084428065 -0.03687845 0.063990995 0.07257976 0.011923057 0.07297874 0.035624538
-0.029915579 -0.06205604 0.060815323 -0.07423985 -0.06616149 0.05035101 -0.08736863 -0.06480466
0.03851097 0.0065564876 0.05356532 -0.06607178 -0.008787803 -0.057313815 0.086576864 0.05935983
-0.08564449 0.07183032 -0.022335583 0.054475367 -0.015021603 0.010617789 0.011079594 0.06325602
0.049305923 0.05800683 -0.03541562 0.07880911 0.01752561 0.046740584 -0.0045986865 -0.07860002
0.01600849 -0.0034014373 0.06795845 0.025719885 0.050600942 -0.043662086 -0.06685064 -0.05178361
00000000: 5c22 053d 8e48 4ebb 1142 113d 59a8 b43c
00000010: cf5f 5bbd 68ef 733c 61dc 91bd c343 b03d
00000020: acb5 37bd d85d e13b 72a0 4b3d fd23 693d
00000030: 6637 5ebc 6dd8 983b 1200 b33d 1c9b 173c
00000040: e124 ae3d 3023 1bbd c575 803d 1609 a6bd
00000050: 5747 95bc e784 62bc c8d9 183d b6d7 91bd
00000060: 6941 b5bd a8a8 04bd 3831 103d 26fa 9b3d
00000070: a194 0fbd dae1 753d ebb2 0cbc 7a67 ee3c
00000080: fec5 ad3c 0574 c3bd 2562 333d 776f 1bbd
00000090: 566a 1cbc bf90 afbb 6167 863d 32d7 babc
000000a0: 1497 ff3c a02e d53b b579 1cbd a823 23bd
000000b0: 123c 8f3d b715 2cbc 5040 4cbc b99e 813d
000000c0: c5a0 08bd 040a 3cbd 1c9c 8e3d 7624 22bc
000000d0: d784 9c3d 3188 153d ca21 87bd 1223 94bd
000000e0: 3ce8 8c3d 1d63 9c3d 8d01 b63c 0779 17bd
000000f0: cc71 3abd f9f8 72bd 2a06 463d f163 853d
00000100: ff54 9bbd 7cca 90bd a83b a6bd 1e21 a53d
00000110: 578f 9a3d 646c 903d a886 83bd 9b2b 1fbd
00000120: f5dc aaba cab4 773d f9d8 84bd afd5 85bc
00000130: 2b65 8cbd 2aa1 50bd 43cc 833b 03ed a53d
00000140: 0df0 3dbd 0a62 d5bc eb4a b6bc 23b7 a6bc
00000150: 215d 84bd 7f81 483c 98d0 54bc 6eef 13bd
00000160: 473e 9abd 5deb 85bd 58e9 013d 8c00 4f3b
00000170: 98f2 f8bb d3e9 36bd a9ae a33d 9dc3 37bd
00000180: e2ff 213d 10a6 85bc 2f30 5bbd f1ae 86bd
00000190: d835 aa3d 1739 d5bc 6622 673d d591 413c
000001a0: 0a4a aebc 430e 0f3d ec60 6c3d f006 2d3d
000001b0: 53e8 09bd c991 84bc 09cd 82bd 8f40 ca3d
000001c0: d344 88bd a1df 8d3c 337a 55bd fee1 77bd
000001d0: 3e71 9d3d 106a cb3c 3113 b5bd 1a0c 94bd
000001e0: e1ed 11bd cdad 303d b79d 06bd 7b1b 13bd
000001f0: e2e3 46bd 01ed 4f3d 48a0 04bc 8d1f 533d
00000200: 97d9 87bd a6f5 bbbc 6eef 9ebc 0fb3 423d
00000210: 4500 0a3d 0c3a 63bd 7288 423d 5f99 55bd
00000220: 4b23 7e3d 7915 42bc 8e60 96bc 5393 893a
00000230: 87e8 333d 164b 2a3d 4b8b cbbc a15b da3c
00000240: ad92 803d 9a95 b03d cc1e 17bd 05e3 c33c
00000250: 5952 ab3d 8819 903d 600e c3bc 358b 82bd
00000260: 1710 81bd 8753 fd3c 807a 1c3c cf30 a4bd
00000270: f889 b13d db69 c9bc 4b30 843c b320 2f3d
00000280: 730e 173d 859e 1d3d 1fd7 56bc b90e 7c3d
00000290: 97c2 ecbc bad4 0f3c 2c28 1c3d ffc5 85bd
000002a0: 260e f83c bf3c 45bd 0068 95bd d249 8b3d
000002b0: 9e46 923b 9dbb d8bc adec 863d 7a0b 31bd
000002c0: a5b6 39bd 4875 8e3a df39 f33c ab54 b63d
000002d0: 6ac9 62bd 7073 87bc 532c 843d 58ff 9bbd
000002e0: 02d6 8fbd c0cc dcbb 05ee acbc 90de 823d
000002f0: 5a03 77bc 0f14 93bd 3024 24bd 1361 85bd
00000300: 5ede cc3c 603d 2c3d 9810 8e3d 509b 633d
00000310: 0959 9fbc 8155 8d3d f2e9 f5bc fefc b03d
00000320: 5fb2 9f3d 3fb4 4abc 9d61 dcbc 3f4a 883c
00000330: 9d46 5f3d 4739 54bd 3c3b 68bd 212a 9fbd
00000340: cb5c c6bd 9fe8 ac3d dc0d 17bd b60d 833d
00000350: b2a4 943d ed58 433c e175 953d 09eb 113d
00000360: 8411 f5bc 792e 7ebd 7d19 793d 100b 98bd
00000370: ad7f 87bd dc3c 4e3d 53ee b2bd 4eb8 84bd
00000380: aebd 1d3d ced7 d63b 4f67 5b3d a450 87bd
00000390: b8fa 0fbc e4c1 6abd 364f b13d 4b23 733d
000003a0: 6166 afbd c61b 933d 1df9 b6bc 9021 5f3d
000003b0: 2b1d 76bc 3cf6 2d3c 2f87 353c 5f8c 813d
000003c0: 02f5 493d 9298 6d3d f80f 11bd ac66 a13d
000003d0: de91 8f3c 0e73 3f3d 94b0 96bb 0cf9 a0bd
000003e0: 3d24 833c a6ea 5ebb cd2d 8b3d 82b2 d23c
000003f0: ef42 4f3d 04d7 32bd fde8 88bd 0d1b 54bd

node_mlp.0.bias f4 [64]
0.065886945 -0.01997838 -0.0042562876 -0.049192615 -0.031412017 0.025783306 0.032542042 0.013669471
-0.049153272 0.018045688 -0.09463143 0.008090459 0.043565676 0.029397545 0.08378603 -0.05913586
0.059808932 0.066171534 -0.037773285 0.06797474 -0.040817965 -0.071677156 0.04096788 0.0049684714
-0.06009896 0.038525026 -0.02605288 -0.011391409 0.058680866 -0.028275745 0.08463011 -0.08667845
0.07220775 -0.0456232 0.028462725 0.002663407 -0.01686808 -0.07783896 0.019686092 -0.047495272
-0.03575025 0.07075488 0.0069664395 -0.03369953 0.014667765 0.041950073 -0.040115654 0.016748505
-0.04159268 -0.024508225 0.03573588 -0.07352044 0.015494699 -0.073362574 0.052971564 -0.085999124
-0.06462967 -0.08594437 -0.05265102 -0.033535045 0.009881402 0.07697593 -0.033952244 0.042160615
00000000: bcef 863d b3a9 a3bc 5478 8bbb 327e 49bd
00000010: e3a9 00bd 8337 d33c ce4a 053d ebf5 5f3c
00000020: f154 49bd 8dd4 933c 20ce c1bd d88d 043c
00000030: ec71 323d 1fd3 f03c 0398 ab3d 7238 72bd
00000040: 36fa 743d f184 873d 29b8 1abd 5736 8b3d
00000050: bd30 27bd 79cb 92bd f0cd 273d 8fce a23b
00000060: 542a 76bd 6bcc 1d3d d96c d5bc 08a3 3abc
00000070: 595b 703d 89a2 e7bc 8d52 ad3d 7984 b1bd
00000080: a8e1 933d 64df 3abd a92a e93c 8e8c 2e3b
00000090: ed2e 8abc 086a 9fbd ba44 a13c 678a 42bd
000000a0: db6e 12bd efe7 903d bb46 e43b 8508 0abd
000000b0: 1151 703c d7d3 2b3d 5050 24bd 2934 893c
000000c0: 165d 2abd 79c5 c8bc c95f 123d e291 96bd
000000d0: 7add 7d3c 1e3f 96bd b6f8 583d 4f20 b0bd
000000e0: 8f5c 84bd 9a03 b0bd 99a8 57bd 0b5c 09bd
000000f0: 9be5 213c 8ea5 9d3d 8211 0bbd 9cb0 2c3d

node_mlp.2.weight f4 [1, 64]
0.11014387 -0.025893483 -0.11711014 -0.036868054 0.0935242 0.09572367 0.0552919 0.015131528
-0.062335044 -0.003617634 -0.10601569 0.03487783 0.08871176 -0.062278327 -0.08493566 -0.020437466
0.10204388 0.027208753 0.08369314 0.07612983 0.0024851065 -0.090690136 -0.01743034 0.058691125
-0.11604038 0.042686716 0.018380124 0.09043669 -0.12294204 0.08214162 0.07917219 -0.04713441
0.112816714 0.08405768 0.11562507 -0.12380892 -0.030460976 -0.049900394 0.08834056 -0.0074247317
0.08075525 -0.059102926 -0.11640508 -0.056653827 -0.09405751 -0.05826223 0.04906512 -0.04327324
-0.027055753 0.11844396 -0.0559691 0.042030662 0.06558517 0.09368988 0.04184453 -0.011768565
0.05225601 -0.007225347 0.13258603 0.120751634 -0.014435261 0.048470926 -0.106778175 -0.018869959
00000000: 1c93 e13d 921e d4bc 71d7 efbd f502 17bd
00000010: 9e89 bf3d c60a c43d c279 623d 3aea 773c
00000020: 0853 7fbd d415 6dbb c11e d9bd 0edc 0e3d
00000030: 83ae b53d 8f17 7fbd bff2 adbd 796c a7bc
00000040: 62fc d03d e4e4 de3c 4f67 ab3d f5e9 9b3d
00000050: 2bdd 223b c0bb b9bd 13ca 8ebc 1b66 703d
00000060: 94a6 edbd 44d8 2e3d ea91 963c df36 b93d
00000070: 09c9 fbbd de39 a83d 0725 a23d 0310 41bd
00000080: 730c e73d 6f26 ac3d d6cc ec3d 888f fdbd
00000090: 4c89 f9bc 5b64 4cbd e5eb b43d 2a4b f3bb
000000a0: 0263 a53d e915 72bd c965 eebd d80d 68bd
000000b0: 39a1 c0bd 60a4 6ebd 82f8 483d 483f 31bd
000000c0: 07a4 ddbc bf92 f23d db3f 65bd 5828 2c3d
000000d0: 8551 863d 7be0 bf3d 2b65 2b3d f0d0 40bc
000000e0: 660a 563d 9bc2 ecbb a2c4 073e a24c f73d
000000f0: df81 6cbc 7389 463d 84ae dabd 2c95 9abc

edge_mlp.0.weight f4 [128, 263]
-0.014921173 0.0028127693 0.06009687 0.040352803 -0.045038268 -0.031062318 0.04606698 0.037367683
0.05867474 0.041951705 0.032527294 0.0060503073 -0.057039667 -0.031786844 -0.033058945 0.037949126
0.04325549 0.018145647 -0.0032666922 -0.028553687 -0.007978976 0.049010504 0.041426238 0.061171543
0.052899536 0.03887708 -0.016954388 0.016199533 -0.016512379 -0.0019745082 0.061454143 -0.013283446
0.057908583 -0.04515154 0.052327465 -0.051846787 0.057730142 -0.041069444 0.032486062 -0.02950808
0.016315978 -0.03449163 0.047911014 0.013171952 -0.0012394339 0.012754675 -0.038176317 -0.039457943
0.02292328 -0.01986909 -0.030842347 -0.023535985 -0.026830815 0.022656184 0.05124942 0.018312085
0.0015662275 -0.039553583 -0.02091302 0.05728166 0.042883407 -0.01044032 0.04666539 0.055498887
0.053652097 0.024156753 0.0023557134 0.0076573305 0.013623301 0.0072739013 -0.025953695 0.0059740283
0.005583968 -0.018603839 -0.01155746 0.03960072 0.031109493 0.048725758 0.032903213 0.006811265
0.033145223 -0.029888049 0.03283708 -0.03652788 0.042124737 0.037233513 0.015199605 -0.054450553
-0.008210212 -0.046300545 -0.01142719 0.0101791285 -0.050619528 -0.028942138 -0.06136694 0.024077471
0.037278224 0.0032632984 0.0037485324 0.038767885 0.021499474 0.009490732 0.057399396 0.0040732957
-0.01880069 -0.021718472 -0.020539552 0.033586416 -0.047918603 -0.057786938 -0.034596078 -0.045685157
-0.052518323 0.043104026 0.03974003 -0.03236357 0.025937263 0.055822697 0.026703905 -0.025551394
0.029055063 -0.003979627 0.00898492 -0.0027492717 0.060044434 -0.024955131 0.051082786 -0.010415357
-0.0005685948 0.041541968 -0.026302394 -0.056999758 -0.00032063946 0.011022944 -0.04125142 0.0034745596
-0.0075024776 0.042682577 0.0100783 -0.06062745 -0.004827015 -0.041273985 0.059583154 -0.017235897
0.03954867 0.008786183 -0.02792935 -0.033439495 -0.022505041 0.034772728 -0.05489847 -0.0046274066
-0.037052736 0.050685707 0.012360971 -0.01742161 0.005555708 0.049239065 0.056812417 0.0065242164
-0.02846101 -0.010328088 0.03561611 -0.004866101 0.02099197 -0.05823046 0.00029492006 0.015099179
0.04145543 0.044305053 0.06161927 -0.027406726 0.053328518 -0.05000007 -0.021318797 -0.011914648
-0.039890505 0.006179806 -0.017104454 0.027503949 -0.009199042 0.028726857 0.019296784 -0.013745103
0.0029726662 -0.060051773 -0.023449305 0.022455458 0.048440825 -0.050348416 -0.056769717 -0.01864434
-0.04296708 0.020872872 0.008297209 0.005374495 0.042426627 -0.011927873 -0.04107484 0.026907776
0.025370967 0.059346255 -0.035894398 0.033493366 -0.024988577 0.022195335 0.026448082 -0.035609704
0.016033921 -0.029156186 0.0032310598 0.04841331 0.05370685 -0.01088696 -0.026306253 -0.05730047
-0.043832477 0.00074579194 -0.0054159947 -0.0419851 -0.05919341 0.013814013 0.0031863935 0.0037759207
0.023929019 0.00629301 -0.039234407 -0.008540209 -0.005754836 -0.0025069118 -0.053407077 0.012173291
-0.015776377 -0.0137282945 -0.035452962 -0.017391015 0.010666933 0.010487806 -0.035071526 0.018452924
0.05795836 0.050762434 -0.019333776 0.0075068213 0.0058221035 -0.01499385 0.045802128 -0.044208586
-0.03243849 -0.021931902 0.0226014 0.026606347 0.0560395 -0.041469876 0.02575278 -0.056075234
00000000: f077 74bc 7056 383b 2328 763d fb48 253d
00000010: 0c7a 38bd 6776 febc bbb0 3c3d db0e 193d
00000020: ed54 703d 8dd5 2b3d 573b 053d a841 c63b
00000030: 6da2 69bd ec32 02bd d168 07bd 8b70 1b3d
00000040: ab2c 313d 2ea6 943c 0016 56bb 6ce9 e9bc
00000050: 40ba 02bc 3dbf 483d 8fae 293d 038f 7a3d
00000060: 2fad 583d 933d 1f3d eee3 8abc e2b4 843c
00000070: f844 87bc c066 01bb 57b7 7b3d d0a2 59bc
00000080: 8d31 6d3d d2f0 38bd 5355 563d 4c5d 54bd
00000090: 7176 6c3d 6f38 28bd 1b10 053d eeba f1bc
000000a0: 16a9 853c 1847 0dbd 573e 443d 2ccf 573c
000000b0: 8074 a2ba fcf8 503c c55e 1cbd a79e 21bd
000000c0: 9ac9 bb3c 80c4 a2bc 17a9 fcbc 8ace c0bc
000000d0: 4ccc dbbc 7699 b93c e9ea 513d 3a03 963c
000000e0: e049 cd3a f002 22bd c851 abbc 2da0 6a3d
000000f0: 83a6 2f3d e00d 2bbc 3524 3f3d cd52 633d
00000100: 4dc2 5b3d 62e4 c53c 5062 1a3b 58ea fa3b
00000110: 4434 5f3c e859 ee3b d89c d4bc c8c1 c33b
00000120: b8f9 b63b 1467 98bc 805b 3dbc 5d34 223d
00000130: 56d9 fe3c a994 473d 85c5 063d 0831 df3b
00000140: 49c3 073d c8d7 f4bc 2d80 063d 429e 15bd
00000150: fd8a 2c3d 2b82 183d c407 793c 8b07 5fbd
00000160: 2084 06bc a4a5 3dbd 1c39 3bbc 5cc6 263c
00000170: 6c56 4fbd 1018 edbc e75b 7bbd 1e3e c53c
00000180: 0db1 183d 10dd 553b f0a9 753b 13cb 1e3d
00000190: aa1f b03c 047f 1b3c a11b 6b3d 4879 853b
000001a0: e803 9abc f0ea b1bc 9042 a8bc e991 093d
000001b0: 4c46 44bd ffb1 6cbd 9eb4 0dbd 5c20 3bbd
000001c0: 741d 57bd d98d 303d 71c6 223d aa8f 04bd
000001d0: 627a d43c 57a6 643d 26c2 da3c 2851 d1bc
000001e0: e204 ee3c 8867 82bb 7c35 133c 202d 34bb
000001f0: 27f1 753d b46e ccbc 2f3c 513d 2ca5 2abc
00000200: c00d 15ba e927 2a3d 1e78 d7bc 9478 69bd
00000210: 801b a8b9 9499 343c 40f7 28bd 70b5 633b
00000220: 58d7 f5bb edd3 2e3d 741f 253c 7d54 78bd
00000230: f02b 9ebb e90e 29bd 770d 743d 4c32 8dbc
00000240: c9fd 213d ecf3 0f3c 18cc e4bc daf7 08bd
00000250: 7e5c b8bc d96d 0e3d 38dd 60bd 80a1 97bb
00000260: 9cc4 17bd d19b 4f3d ac85 4a3c c4b7 8ebc
00000270: a80c b63b e7ae 493d 23b4 683d 18c9 d53b
00000280: 1027 e9bc 2437 29bc 33e2 113d d073 9fbb
00000290: 5af7 ab3c 1083 6ebd 809f 9a39 8c62 773c
000002a0: 2bcd 293d 3779 353d 7d64 7c3d 1284 e0bc
000002b0: 016f 5a3d e0cc 4cbd c2a4 aebc a835 43bc
000002c0: 3a64 23bd f87f ca3b a41e 8cbc f64f e13c
000002d0: 94b7 16bc 9654 eb3c 4a14 9e3c 2433 61bc
000002e0: 10d1 423b d9f8 75bd c218 c0bc 82f4 b73c
000002f0: e369 463d 243a 4ebd 5d87 68bd 04bc 98bc
00000300: 40fe 2fbd 96fd aa3c 04f1 073c 881c b03b
00000310: 8bc7 2d3d 206d 43bc 173e 28bd b26d dc3c
00000320: c6d6 cf3c 0f15 733d 0106 13bd 5730 093d
00000330: d8b4 ccbc fed2 b53c a6a9 d83c 7bdb 11bd
00000340: 9259 833c f4d8 eebc 30c0 533b 094d 463d
00000350: b7fb 5b3d 385f 32bc 3680 d7bc e6b3 6abd
00000360: af89 33bd 4081 433a a878 b1bb 91f8 2bbd
00000370: ca74 72bd 2c54 623c d0d2 503b 7075 773b
00000380: ca06 c43c 9835 ce3b 42b4 20bd 3cec 0bbc
00000390: 1093 bcbb 004b 24bb 61c1 5abd 7c72 473c
000003a0: 763d 81bc a4ec 60bc 2037 11bd 9a77 8ebc
000003b0: 5cc4 2e3c 0cd5 2b3c 29a7 0fbd 962a 973c
000003c0: bf65 6d3d 45ec 4f3d de61 9ebc c8fb f53b
000003d0: 58c7 be3b c4a8 75bc 039b 3b3d 1014 35bd
000003e0: 39de 04bd 88aa b3bc 9226 b93c 8ef5 d93c
000003f0: ad89 653d 51dc 29bd 7ef7 d23c 25af 65bd
