data/graph-save/gnn_model.pth (torch, 251090 bytes, 11 tensors)

convs.0.lin_l.weight f4 [128, 71]
00000000: c3be 013a bd5a f839 d3a0 ee39 ea11 902e
00000010: ff4b 0ab9 595a 1438 20c6 acb9 2013 f9b7
00000020: 7b51 a339 ce7f a5b9 752a 3eba b96f b1ba
00000030: f014 283a fb67 0739 6bc1 e3b9 aa97 743a
00000040: 1d65 af3a 2c85 d2b9 10c6 523a 1270 003a
00000050: 89b8 3aba e5b9 12ba 764c 39ba c17f 41b9
00000060: d2ee 7ab9 ff79 093a e446 8aba 9c4f dab9
00000070: a9e0 9f3a 3988 abb9 19eb 17ba 7ad6 3cb7
00000080: ae73 da3a 6208 5dba 914d f03a d26c e1b8
00000090: 9b65 b738 80cf c7b7 c8a7 c537 a230 deb8
000000a0: 86b8 84b8 f4d2 f6b8 5ab8 af39 5967 1e39
000000b0: eb9f 9339 17cd dab9 eba3 2a39 46e4 0bba
000000c0: 4dc4 a739 32e3 efb9 ca02 243a 38be 8a39
000000d0: a2fe e0b9 fcd6 9a39 51c0 1dba 42cb 493a
000000e0: e41a 0f3a 7ce0 4ab9 d0b2 beb8 a2a4 0f3a
000000f0: d0ca b13a f31e 57b9 aefd 74ba 1341 eeb9
00000100: e629 473a 11e5 33ba 48eb 24b9 1cb9 52b8
00000110: 752e 4039 00ec ce36 cc9c 5b38 dcab 45b8
00000120: ccd3 5fb8 f478 a9b7 d91f 49b0 ee37 1b38
00000130: fb6a 0638 5255 b537 8036 8b34 a49a cbb7
00000140: a338 22b6 5f95 6838 ea97 c738 7009 ebb7
00000150: 40b7 3333 1cdc f737 a5bf 8db8 02ce ceb7
00000160: f317 36b8 8e71 91b8 ce31 1cb7 d452 cc37
00000170: 3905 db37 865e 0838 086a aa37 b05f 40b8
00000180: 2cdf 1337 fe12 9238 ead7 34b8 7830 82b8
00000190: d0f3 a738 44d2 e237 ddf6 9637 fd37 ee36
000001a0: 538a c438 3eaa a537 eb23 dfb7 7d65 2538
000001b0: 92c5 2138 36c3 ce37 1105 0237 f4e8 e037
000001c0: a012 8338 33d9 85b8 635d bd37 301f 35b7
000001d0: 5dc6 0db8 ad41 d6b7 707a 5338 7952 9435
000001e0: 3844 fa37 f349 04b7 399c a4b7 0197 c337
000001f0: e475 d4b7 70f3 0fb8 98e2 f8b7 6d5e 99b8
00000200: fca0 13b7 e9ea 8938 9151 de37 d2e0 07b9
00000210: d4ba 0d36 086c 4c38 f289 4237 9100 dab7
00000220: 8b2b 6f38 327d 1f38 9df6 0bb8 3e66 6337
00000230: 87c0 09b8 6b13 60b8 0129 fdb8 9cc2 01b9
00000240: aa3a 95b8 0081 a82f 3c99 9ab9 c62d 88b9
00000250: 109f c438 3952 9539 98aa 3f39 4889 1d39
00000260: 4e9d 15b9 6251 fbb9 1fe4 18b8 ef39 4738
00000270: 7f44 61b9 5887 9d39 5929 3238 e0fa 2eb8
00000280: 2c26 9c39 fdab 8938 cd31 2aba 4822 83b9
00000290: a829 01b9 b226 19b9 0efe 1a38 9b1e db39
000002a0: 80d3 bcb9 dbf4 6438 d4fd 1e3a a2e1 67b9
000002b0: 29fe 82b9 24b1 a237 df5f fb38 7d29 22b8
000002c0: 0a91 b238 d771 b0b8 f059 bbb8 0b10 3eb8
000002d0: 7351 67b8 7269 9236 9e04 c3b8 8ce6 27b9
000002e0: 3a04 5f38 29bd efb8 4b35 3f39 c825 e939
000002f0: e939 4039 7042 8db9 8d4b 0d39 a9a2 c5b9
00000300: 7bdd 04b8 9838 4139 7e5d 43b9 2f0b 3a39
00000310: 79bf e239 1020 4537 2451 d138 ab27 80b8
00000320: 9043 4cb9 006b 50b5 035b b139 d8a3 27b9
00000330: 12c8 dab9 82ae 03b9 946e 7e37 c8b8 69b9
00000340: a11d 4038 f4d7 37b8 dffb 2a39 26e8 d2b7
00000350: d8ee f7b7 248b 283c 1d21 1b3c 381c 513b
00000360: 20ec 092e a987 3f3d a2bd 4c3d 9c48 a23b
00000370: 03b9 433c 52ca ca3b 7374 2ebd 8e6a ae39
00000380: b202 7c3c 24cc 433a b7b3 5c3b fc2d 8f3c
00000390: f70f a23c d814 a13b 18be 78bd a9fe 9b3c
000003a0: 71fa 793c 4480 443b 1c9d b33b fc1f 833c
000003b0: 3bb1 8d3b 1e78 04bd 88c6 503b 6e49 6a3c
000003c0: 24f4 92bd db1d a83c ca00 4dbb 81ef b33b
000003d0: 8d49 fa3b a9c6 883c c3d7 7a3c 6286 643c
000003e0: eea2 21bd 5c7c 063c 229c 203c 36d2 ff3b
000003f0: 4c68 f03b 4a95 693a 1fd9 043a bd86 c7bc
0.0004949385 0.0004736985 0.0004551472 6.551544e-11 -0.00013189016 3.5370093e-05 -0.0003295401 -2.9692019e-05
0.0003115049 -0.00031566474 -0.00072542514 -0.0013537324 0.00064118113 0.00012913339 -0.00043440922 0.0009330461
0.0013381575 -0.00040153542 0.0008040378 0.0004899512 -0.0007122835 -0.00055971585 -0.00070685835 -0.00018453506
-0.00023930825 0.0005244314 -0.0010549692 -0.00041639514 0.0012197691 -0.00032717155 -0.0005795225 -1.125561e-05
0.0016666555 -0.000843173 0.0018333663 -0.000107491054 8.7450455e-05 -2.3819273e-05 2.356236e-05 -0.000105948435
-6.328621e-05 -0.00011769487 0.00033515954 0.00015106554 0.00028157173 -0.00041733004 0.00016273528 -0.00053364446
0.00031998978 -0.00045754906 0.0006256519 0.00026463135 -0.00042914326 0.00029533345 -0.0006017732 0.0007697829
0.0005459024 -0.00019347848 -9.0932124e-05 0.0005479549 0.0013564471 -0.00020515527 -0.00093456625 -0.00045443382
0.0007597491 -0.00068624417 -0.00015727908 -5.0240298e-05 0.00018327853 6.1667524e-06 5.2359697e-05 -4.7128517e-05
-5.3364594e-05 -2.0202693e-05 -7.316863e-10 3.700697e-05 3.2047723e-05 2.1616612e-05 2.5930422e-07 -2.4271496e-05
-2.4172848e-06 5.5452223e-05 9.517356e-05 -2.8018578e-05 4.184335e-08 2.9547191e-05 -6.7591005e-05 -2.4653044e-05
-4.3414486e-05 -6.93529e-05 -9.309921e-06 2.4357265e-05 2.6109266e-05 3.251296e-05 2.0314954e-05 -4.5865483e-05
8.813844e-06 6.96536e-05 -4.311643e-05 -6.207911e-05 8.008594e-05 2.7039212e-05 1.7996348e-05 7.0994706e-06
9.371773e-05 1.9748808e-05 -2.6600397e-05 3.9433584e-05 3.8569393e-05 2.4648016e-05 7.749783e-06 2.6811358e-05
6.250036e-05 -6.382391e-05 2.2574042e-05 -1.0795702e-05 -3.380176e-05 -2.554137e-05 5.042035e-05 1.1050862e-06
2.983409e-05 -7.885031e-06 -1.962307e-05 2.3316128e-05 -2.5327266e-05 -3.4320576e-05 -2.966942e-05 -7.313197e-05
-8.799365e-06 6.5764245e-05 2.6502445e-05 -0.00012958355 2.1119386e-06 4.8738002e-05 1.1595419e-05 -2.5987889e-05
5.7022593e-05 3.802515e-05 -3.336986e-05 1.35540595e-05 -3.284265e-05 -5.3423846e-05 -0.00012071618 -0.00012374896
-7.115801e-05 3.0650682e-10 -0.00029487337 -0.00025974045 9.375636e-05 0.00028480755 0.0001827873 0.00015023828
-0.00014268348 -0.00047935086 -3.645208e-05 4.7499252e-05 -0.00021483189 0.00030046212 4.2477015e-05 -4.171848e-05
0.0002978308 6.5647044e-05 -0.0006492406 -0.0002501181 -0.00012317917 -0.00014605632 3.6953068e-05 0.00041793738
-0.00036015734 5.4587475e-05 0.0006065045 -0.00022113931 -0.00024984896 1.9394392e-05 0.0001198647 -3.866245e-05
8.514717e-05 -8.413538e-05 -8.933607e-05 -4.531447e-05 -5.5150547e-05 4.3634145e-06 -9.2991846e-05 -0.00016012246
5.317128e-05 -0.00011431642 0.00018235033 0.00044469372 0.0001833212 -0.00026943116 0.00013474953 -0.0003769596
-3.1677522e-05 0.00018426997 -0.00018631478 0.00017742508 0.00043248737 1.174958e-05 9.98101e-05 -6.110904e-05
-0.00019480125 -7.7641744e-07 0.0003382788 -0.00015987398 -0.00041729264 -0.00012558143 1.5165326e-05 -0.00022289448
4.580396e-05 -4.3831722e-05 0.00016306293 -2.5142053e-05 -2.9555915e-05 0.01028708 0.009468344 0.0031907689
3.1359915e-11 0.046760235 0.049985535 0.0049525034 0.011945966 0.0061886692 -0.042591523 0.00033267256
0.015381502 0.0007469079 0.0033676454 0.017477982 0.019783003 0.004915815 -0.060728163 0.01904233
0.015257464 0.0029983679 0.0054813754 0.016006462 0.004324106 -0.032341115 0.0031856615 0.014299734
-0.071754724 0.020522049 -0.0031280988 0.0054911976 0.0076381625 0.016696291 0.015310231 0.013948055
-0.039462022 0.0082083605 0.00980285 0.0078070415 0.007336652 0.00089104904 0.0005067754 -0.02435624

convs.0.lin_l.bias f4 [128]
00000000: b526 643a d29e 7d37 9b3a 7bb9 1ec6 9cbd
00000010: 4750 2d3b 6d1e f6b8 03ee 0437 daf7 6c3c
00000020: 21ad 53bd 467d 3abd 8cba e23c b457 253c
00000030: 95a4 fdbd 42c8 fbbd d7b8 b8bd fee6 9abc
00000040: 1b81 30be 45a5 77bb a5b9 c2bc 179e f1bc
00000050: a22c 0f38 918b a4ba 72a4 e8ba 260a be39
00000060: 3a94 17bb 5a30 0d3c 29d7 1c3b 18e0 6cbb
00000070: f7c2 453c c980 ffb9 698c 133c 77e4 243c
00000080: ee6f a2bb 445d 60b9 7dad a5ba afc8 3f3c
00000090: 9b7d 9fbd 7887 febb 6138 b7bd ed2d 9dbd
000000a0: 7110 42bd a13e 2539 5fd3 abbd 1428 d8b9
000000b0: 8565 ac3b cc0c 0bbc 0145 09bc 2ce0 a73a
000000c0: b2c5 933c 450d 6a3a 2580 84ba f823 533b
000000d0: 9ed1 6cb9 acab aabb ffb0 29bc 77bd f0bc
000000e0: 8611 343a ec0e dfbc a0db 77bc abbd 883b
000000f0: bffb e238 7ed6 903c 009c 8fbc c2e1 cb3a
00000100: 37ba b73c 2e47 09be c376 a2bd bf4f a13a
00000110: a5cf 0ebd 4434 e2bc d27d 8abd fc87 ca3b
00000120: d15b 31be 9ad1 493c 7fc4 d5bb 748a b53b
00000130: 3893 b5bb 4a58 58bd ceac fdbd 5cc7 d6ba
00000140: 2df7 2ebb 9101 b6bd 269c 1c3c fa35 653c
00000150: f6be 0f3c 73a2 e6bd bb8c d43c dc1a 3839
00000160: 964d bd3c cf9a 6cb7 2c00 7e3a b464 13bc
00000170: 34de 6f3c e4cd 0b3c 0eaf ccbc 5cd5 fe39
00000180: 015a 8db9 561b 973b 66dc 59bd 7d44 9cba
00000190: 3c9f b6b9 24f4 40bc a8b4 d23c fa95 f93b
000001a0: 5813 14bd 9d12 d139 6170 063c ff79 29bd
000001b0: 442f b839 b0b7 4d3c 7af5 913b f837 70bd
000001c0: e474 ed38 c0f0 a53b a495 a5b7 5706 4dbb
000001d0: 4d48 01be a80e 43bc 16af 8abd 1e2c b0bc
000001e0: b251 40bd 0c33 5fb8 4d19 9dbb 858a 853b
000001f0: f701 0ebc 905a 603c 7b2a 8b3b f12a a037
0.00087032776 1.5116953e-05 -0.00023959058 -0.07654975 0.0026445554 -0.00011735861 7.9232295e-06 0.014463389
-0.05167878 -0.045529626 0.027676843 0.010091711 -0.12384907 -0.122940555 -0.090196304 -0.018908974
-0.1723675 -0.0037787717 -0.023770163 -0.029494328 3.4135424e-05 -0.0012553801 -0.0017749204 0.00036247185
-0.0023129121 0.008617485 0.0023931956 -0.0036144312 0.012070409 -0.00048733343 0.009005644 0.010064236
-0.0049571907 -0.00021397049 -0.0012640205 0.011705562 -0.07787629 -0.007767614 -0.089463 -0.07674775
-0.04737896 0.00015758957 -0.08389925 -0.0004122859 0.0052611255 -0.008486938 -0.008378268 0.0012807897
0.018038604 0.0008928369 -0.0010108991 0.0032217484 -0.00022584802 -0.005208453 -0.010357141 -0.029387219
0.0006869066 -0.027228795 -0.015128046 0.004173001 0.00010823411 0.017680403 -0.017530441 0.0015554952
0.022427661 -0.13406059 -0.07932808 0.0012307091 -0.034865994 -0.027612813 -0.067622796 0.0061807614
-0.17320181 0.012318039 -0.0065236683 0.0055401865 -0.0055412315 -0.052818574 -0.123864755 -0.0016386318
-0.0026697621 -0.088870175 0.009558713 0.01398992 0.008773556 -0.112614535 0.025946012 0.00017557613
0.023108285 -1.410274e-05 0.00096893567 -0.008996177 0.01464038 0.008532975 -0.024985816 0.0004860562
-0.00026960674 0.004611413 -0.053188704 -0.0011922267 -0.00034832384 -0.011776958 0.02572091 0.0076167556
-0.03615126 0.00039877454 0.008205504 -0.04137611 0.0003513043 0.012556002 0.004454312 -0.058647126
0.00011322813 0.0050641 -1.9739215e-05 -0.0031284296 -0.12625237 -0.01190535 -0.06771676 -0.021505412
-0.04695291 -5.3214884e-05 -0.004794276 0.0040753507 -0.008667461 0.013693467 0.0042470074 1.9093482e-05

convs.0.lin_r.weight f4 [128, 71]
00000000: 6bdb b7b9 0062 94b9 d929 6839 4860 0fb1
00000010: 5006 00ba 7d9d b4b8 ae01 85bb 6951 67b9
00000020: 7c87 a8b8 f6ca 23ba fda3 5dba a426 96ba
00000030: a198 9a38 4e51 a839 9c0c 33ba 2c98 8e39
00000040: 39ab 8a3a 1212 f9b8 ee4b d539 9530 45b9
00000050: 11b5 1cba b570 a2ba 3031 16ba 9427 8939
00000060: 9ffe b139 32a0 943a 8588 97ba 548f 19b9
00000070: 41e1 623a 1c63 97b9 74bc a0ba 5602 3bba
00000080: 5894 153b 1659 6aba 2b8f 243b 1c01 4bba
00000090: d6d5 9ab8 d14b b3b9 ece9 103a d00b 3db8
000000a0: a685 0fb9 dd5c 6339 44b5 103a 94c8 85b9
000000b0: 38de 09ba ccb2 4aba f57f 30b8 0d8d 84b8
000000c0: 33b0 b5b9 74de 27ba d8eb f938 a62b adb8
000000d0: 4715 5cba 185c 9eb8 b334 7eba a83b ba39
000000e0: 0f4f df3a 5e64 87b9 0196 b8b8 1eef 6fb9
000000f0: 4341 933a 1f56 b7b9 06bb fdb8 6828 5fba
00000100: 9f3a a33a e73e 2bba 8ef2 f5b8 0b98 3ab9
00000110: 3688 8db9 0598 30ba 71f5 30ba 8fc7 b3b7
00000120: 27ab c2b7 ca6a 7537 cb96 1e31 db0a 0238
00000130: 260f 8d38 7814 1cb9 2dad b037 ef68 ac38
00000140: dcdc 52b8 d864 b438 d6c6 6938 44bc 92b8
00000150: 0f10 7937 5778 fd38 48b8 b7b7 9879 65b6
00000160: 8fc0 adb8 69b5 43b8 55a5 93b7 6afb de37
00000170: 2144 8938 8b4a c038 5de6 0e38 53b7 e5b8
00000180: face 5038 5a9a a338 944e b4b8 b043 dab6
00000190: 8c12 c437 7c49 8938 d929 b438 5527 13b8
000001a0: 8371 6e38 be28 07b8 a2c9 3cb8 f07b 5a35
000001b0: 3860 c537 eac7 8037 df2a aab7 7947 2638
000001c0: f07d b0b7 ab7f 74b8 0cc1 7337 41e9 6638
000001d0: 3cde 1cb7 ecef ab38 6aeb cab8 f02e 8636
000001e0: 0bfc bc38 dee4 59b8 cb7c a938 7c11 ab37
000001f0: 6d93 a638 e05e 3eb7 60d6 9e37 5061 b437
00000200: 50ca 7e38 bbe0 0038 492c 4738 1e1d 4db8
00000210: d415 fe35 fd5e 3337 769c 8b37 191f b1b7
00000220: c0d1 c237 b025 adb7 4697 7038 d479 9537
00000230: 2cae 46b8 8286 97b8 0c69 5cb9 ecfd 2bb9
00000240: a20c 15b9 9031 552f 9164 f8b9 6940 f6b9
00000250: 4c5e 71ba f80e ee39 4038 a338 400a b739
00000260: 1c13 c2b8 35c5 24ba 98ec a739 bc45 9437
00000270: fe1c f037 311b ff39 9a97 e437 096c 013a
00000280: 8903 093a 10bb 1338 4617 f1b9 5656 66b8
00000290: 2446 5639 a3c5 be38 3b76 3ab9 6680 aa3a
000002a0: d2d0 f7b9 b13f 2a3a 96b2 5cb9 f64d a4b8
000002b0: 9087 6eb8 3fb6 9d39 a538 f837 a19e 0c39
000002c0: e03e 8935 3039 edba c248 cc38 7958 b738
000002d0: 598e cd38 d156 e7b7 4987 3037 f6f6 a9b7
000002e0: c6a3 47b9 7388 1e39 ae79 c639 746d 0c3a
000002f0: 8381 3c38 6093 a637 fbc2 c939 8482 bfb9
00000300: 1311 a739 9527 ad38 78cb 0d39 7c85 ad38
00000310: c00f 0c3a 1121 54b9 44a1 edb9 7c5d 3438
00000320: 74e3 af37 c644 9838 3ef6 653a 9fd1 33b9
00000330: ab34 4cba 0606 0039 1885 3c39 ba6f a738
00000340: 6e75 b9b7 88fd 93b8 a534 aa39 d0ba 09bb
00000350: 55bc 0ebb b85a 0f3a 0823 94b9 8835 d63b
00000360: 2c7d af30 8e25 853d 1cb9 153d a8fe 243e
00000370: 7f97 3f3c 2223 10bb c490 86bd 4f3b 09ba
00000380: 6743 3d3c 42ac ba3b 4475 1c39 03a8 353c
00000390: 3386 923c 12e4 123c 10f0 a6bd becb 913c
000003a0: 131d cc3c 2d03 afbb 1827 1bbb 36fa 813c
000003b0: 08e7 073c cde0 163c 2468 26bb 3ac1 953b
000003c0: 5311 aabd 57d8 0ebd 5cc5 f33a 8454 1bbb
000003d0: adf9 7d3c 0ca2 ad3c cb89 9c3c 008a a33c
000003e0: 96c0 ed3b 7029 133c ecc2 dd3b 135c 593c
000003f0: b8eb 9d3b 2ac7 013a 17f3 0b3d 854c 2dbd
-0.0003506796 -0.00028301775 0.00022140834 -2.0863968e-09 -0.0004883753 -8.612403e-05 -0.004059038 -0.00022060204
-8.0361e-05 -0.00062482 -0.0008454917 -0.0011455608 7.3717216e-05 0.00032104034 -0.0006830187 0.00027197727
0.0010579593 -0.00011876611 0.00040683098 -0.00018805482 -0.0005977909 -0.0012393208 -0.00057293754 0.00026160164
0.00033949778 0.0011339246 -0.0011561072 -0.00014644611 0.0008654781 -0.00028874807 -0.0012263195 -0.0007133832
0.0022824015 -0.00089396664 0.0025109749 -0.0007744001 -7.383122e-05 -0.00034198028 0.0005528021 -4.5072113e-05
-0.0001368733 0.00021683001 0.0005520175 -0.0002551718 -0.00052592484 -0.0007732331 -4.208084e-05 -6.320523e-05
-0.0003465429 -0.00064036925 0.000119171746 -8.257413e-05 -0.00083955046 -7.551181e-05 -0.0009697184 0.00035521132
0.0017037111 -0.00025823986 -8.801744e-05 -0.00022881894 0.001123466 -0.00034968645 -0.00012098816 -0.0008512796
0.0012453384 -0.00065325055 -0.0001172769 -0.00017794983 -0.000269951 -0.000673652 -0.0006750441 -2.143139e-05
-2.3206301e-05 1.4628002e-05 2.3077742e-09 3.1004525e-05 6.7262255e-05 -0.00014884945 2.1061476e-05 8.2211445e-05
-5.0273593e-05 8.6018525e-05 5.573671e-05 -6.99689e-05 1.48452955e-05 0.00012086395 -2.1901113e-05 -3.4194436e-06
-8.28515e-05 -4.6660574e-05 -1.7600754e-05 2.6581536e-05 6.545359e-05 9.169158e-05 3.406998e-05 -0.00010953718
4.9783826e-05 7.801196e-05 -8.597705e-05 -6.504786e-06 2.3373657e-05 6.5463566e-05 8.5908636e-05 -3.5084162e-05
5.6849338e-05 -3.2224452e-05 -4.5010478e-05 8.139168e-07 2.3529035e-05 1.5351881e-05 -2.0285543e-05 3.964405e-05
-2.103948e-05 -5.8293033e-05 1.4528876e-05 5.5053508e-05 -9.350068e-06 8.198604e-05 -9.67596e-05 3.9989754e-06
9.011485e-05 -5.194998e-05 8.0817925e-05 2.039293e-05 7.942957e-05 -1.1346972e-05 1.8934894e-05 2.1502987e-05
6.0746737e-05 3.0726875e-05 4.748654e-05 -4.8902926e-05 1.8930828e-06 1.0691348e-05 1.6642949e-05 -2.1114525e-05
2.3224275e-05 -2.0640757e-05 5.7361343e-05 1.7818915e-05 -4.736909e-05 -7.225295e-05 -0.00021019968 -0.00016402424
-0.00014214453 1.9389845e-10 -0.00047377174 -0.00046968766 -0.0009207472 0.0004540605 7.782923e-05 0.00034912117
-9.2542e-05 -0.00062854897 0.00032028998 1.7675447e-05 2.862373e-05 0.0004865765 2.7250313e-05 0.0004937058
0.0005226662 3.5221747e-05 -0.00045984442 -5.491668e-05 0.0002043476 9.096719e-05 -0.00017782387 0.0013008236
-0.00047267094 0.0006494476 -0.00021047363 -7.834651e-05 -5.6869874e-05 0.00030081157 2.9590281e-05 0.00013410534
1.0225594e-06 -0.0018098708 9.74103e-05 8.742599e-05 9.801676e-05 -2.7577773e-05 1.0521916e-05 -2.026137e-05
-0.00019039129 0.00015118885 0.0003785616 0.0005356886 4.494331e-05 1.9857369e-05 0.0003848298 -0.000365276
0.00031865443 8.2566556e-05 0.00013522606 8.274146e-05 0.0005342923 -0.00020230214 -0.00045324315 4.300241e-05
2.0967542e-05 7.260735e-05 0.00087723497 -0.0001714886 -0.00077898306 0.00012209275 0.00017978658 7.983991e-05
-2.2108401e-05 -7.05673e-05 0.0003246415 -0.002101589 -0.0021779735 0.0005468535 -0.0002825486 0.006537143
1.2768502e-09 0.065013036 0.036553487 0.16112769 0.011693834 -0.0021993597 -0.065705806 -0.0005234973
0.0115517145 0.0056968043 0.00014921004 0.01108742 0.017886257 0.008965509 -0.08151257 0.017797347
0.024916207 -0.0053409548 -0.0023674425 0.01586638 0.008294828 0.00920887 -0.0025391662 0.0045701535
-0.083040856 -0.034874287 0.0018598246 -0.0023701498 0.015501422 0.021195434 0.019108674 0.019963264
0.007255624 0.008982047 0.0067676213 0.013266581 0.0048193596 0.0004950637 0.034167375 -0.042309303

convs.1.lin_l.weight f4 [128, 128]
00000000: d09d 803a f5f0 3237 605c 7f39 6953 95bb
00000010: 45e1 f3ba 5632 a738 e76a b237 e4da f2ba
00000020: a83a 093b e449 ae38 f0ea 1c3b 3ab4 363b
00000030: 861c 203a e981 0d3c 1c62 75bc 6a41 8cbb
00000040: f0eb 833a 5dd1 833a 940d f0ba 1f3c 30bb
00000050: 1c74 3838 8030 6eb6 14e9 8338 d21b 9bb9
00000060: 9c0d edb8 b47b 833b 2796 9bbc fcf1 dfb9
00000070: 691e 583c f7d3 8b38 a947 863b 7f80 313c
00000080: 45f6 2f3c 276f 1cba f908 df3a 2154 673a
00000090: ad7c 713c 322d 18bc 0804 5a3b 17d1 89bb
000000a0: b12b 023a 216d 5e39 2569 45bc fc59 a739
000000b0: 7746 0c3c 4895 bfba 92e3 853b 38bb d33a
000000c0: 09c1 f73b c0b3 3a3a e6b4 a339 2839 f43a
000000d0: 02f1 2bb8 5fc0 013c 5b55 56bb 5c9e 243a
000000e0: ffb7 623a 38df 393c e0cc 89bc 4a42 5139
000000f0: ac38 1639 adb0 bb3b cc3e 813a c6a1 793a
00000100: 7a43 d53b c80d b33b 8084 18bc 05ee 5b3a
00000110: 274e 41bb 0864 173b a089 9e39 77d2 c73a
00000120: 7584 a23c ce52 dc39 1ef5 bf3a 490b 633a
00000130: a11c 92ba 346b e03b a621 99bb e634 9bba
00000140: 75fc 46ba d0aa d23b 3e65 893b 00bb b63b
00000150: 3a8e 933b 9429 323c e4e8 4a3c 065e cf38
00000160: 075e cd3a 0b23 df37 c236 8d3a e21e 47ba
00000170: c188 0f3c bdf3 5c3b 4a98 a03b a52a 2bbb
00000180: d944 2239 e4c1 803b d259 44bb 349c f739
00000190: 3260 183b e35e c8ba eb7b 0b3d 868d 4f3c
000001a0: 5ce7 dbbb 17df d238 e7cd 933a d375 b2bb
000001b0: 60e8 40b8 f8cc b43b d8e2 8abb 18cc 233c
000001c0: 6632 a6b8 ea9b 093b 58eb 8136 68ab 273b
000001d0: b5d3 37bc e010 3cbb 082c 323b 54b6 23bc
000001e0: c2c1 98bb 496c ac3a 3f13 b03a 80d0 873a
000001f0: 5198 ecbb f4d1 c73b 4120 5bbc d817 7835
00000200: 90d9 96ba 0e9e e238 2e12 01ba b949 37bc
00000210: b118 493b cc03 e2b8 fce2 9535 865f 233c
00000220: fad6 96ba 6160 c1bb f438 29b9 325a 04ba
00000230: df68 cfbc b7ac 273b 1432 9fbb f82a dfbb
00000240: 9404 ffbb 2b12 2bbb a038 43bc 0058 c436
00000250: a893 87b7 9893 edb9 f45f abba 1828 2439
00000260: fb00 22bc 70c8 20bb aca7 833c d22c 1dbd
00000270: d07d 3cbb 081f 4739 8f56 a2bb c840 75bc
00000280: f4a2 a13c 5944 00ba e5d8 9eba 8d7b e8bb
00000290: e43a 33bc 28b3 e7bb cd4d 86bc 4848 cabb
000002a0: 2111 dfbb 7537 8139 e48d 84bc 1467 b83a
000002b0: edd8 c6bb 0a9d c5b9 c731 593c f169 fa39
000002c0: 272a 993b fe00 9cba cf3b d2b9 3e9e 91ba
000002d0: c332 4c39 643a bebb d7b2 ce3b 044e 5f3b
000002e0: 5dfe b7ba 9d09 febb e12c 7cbc ed08 04bb
000002f0: ea27 7c39 fadc 2fbb cb7e 213c d32a aa39
00000300: 233d 8c3b 0e2c 93bc f9b5 3cbc f6f6 38b9
00000310: 8b65 08bc 4c9c 53bc 1e2e c2bb 9ca9 f6ba
00000320: 7c6f ea3a 562c 253a a6f9 81bb 7ec6 fdba
00000330: 4183 fa3a cead 9ebb 0e9e 2abc 3559 da3a
00000340: 7965 18ba 308b 04bc 92e9 b8ba 70bc 41bb
00000350: 26f7 1fbb b073 47b8 aa3c 44bc d942 b7b9
00000360: 0730 c1ba 8713 1a36 998f 3dba 7280 5eb9
00000370: 1881 ec3a 850b 1abc aa3e 583b 005f 77bc
00000380: d2af d538 0c22 2a3a aee0 7cbb 1832 48ba
00000390: f74d dd39 bad2 0dbb 87a5 553c 04ca 06bc
000003a0: e10f 7b3a 600d 83b9 13e0 c03b 62cd b6bb
000003b0: 7eac dd38 a290 31bb 55fe 793b a408 04bc
000003c0: 2cbf aeb7 e7a5 49bc e090 3e37 8891 75ba
000003d0: ae2b 40bc 6b4f 8aba 21a7 1c3b b188 933b
000003e0: 8b82 72bb 505b 45ba 7507 debb 6542 beb9
000003f0: b947 833c 41bb aabb 9fbd a6bc 8612 8cb7
0.0009812657 1.0665729e-05 0.00024353107 -0.0045570624 -0.0018606564 7.972556e-05 2.1269034e-05 -0.0018528369
0.0020939503 8.31073e-05 0.0023943745 0.002787842 0.0006107766 0.00863693 -0.014977004 -0.004280259
0.0010064822 0.0010056902 -0.0018314593 -0.0026891304 4.3977154e-05 -3.5492994e-06 6.289981e-05 -0.00029584632
-0.000113035756 0.0040125493 -0.018992497 -0.00042714167 0.013190844 6.667518e-05 0.004097898 0.0108338585
0.010739868 -0.0005967491 0.0017016224 0.0008824487 0.014739198 -0.009288119 0.0033266563 -0.0042058337
0.0004965617 0.00021212224 -0.012048994 0.00031919766 0.008561722 -0.0014616633 0.0040859664 0.0016153818
0.0075608534 0.0007122122 0.00031224563 0.0018632757 -4.0994033e-05 0.0079194 -0.0032704684 0.0006279701
0.00086486334 0.011344723 -0.016821325 0.00019956488 0.00014326227 0.0057278485 0.0009860634 0.00095227023
0.006508288 0.0054642893 -0.009308934 0.00083896547 -0.0029496045 0.0023100395 0.00030238647 0.0015245219
0.019838551 0.00042023364 0.0014645194 0.00086610444 -0.0011147448 0.006848717 -0.0046732007 -0.0011841326
-0.00075907196 0.006429054 0.004192977 0.0055764914 0.0045030387 0.010874171 0.012384627 9.8880424e-05
0.0015668281 2.659999e-05 0.0010773765 -0.00075958495 0.008760632 0.0033714615 0.004900967 -0.0026117947
0.00015475172 0.0039293636 -0.0029960764 0.00047227892 0.0023250696 -0.0015287068 0.034053724 0.012668019
-0.00671093 0.00010055134 0.0011276574 -0.0054461746 -4.5992783e-05 0.0055175982 -0.0042384677 0.00999739
-7.924884e-05 0.0020997473 3.871897e-06 0.0025584344 -0.0112199085 -0.0028696582 0.002718689 -0.009992201
-0.0046617696 0.001315483 0.001343347 0.001036182 -0.007220306 0.0060980264 -0.013374389 9.2421897e-07
-0.001150893 0.0001080596 -0.00049236685 -0.01118701 0.0030684883 -0.00010777227 1.1167426e-06 0.009971505
-0.001150816 -0.005901382 -0.00016138313 -0.00050488405 -0.025318561 0.0025585124 -0.0048582647 -0.006810542
-0.007782528 -0.0026103358 -0.011915356 5.8514997e-06 -1.6162012e-05 -0.00045314129 -0.0013074861 0.00015655195
-0.009887929 -0.0024533533 0.016071163 -0.038372822 -0.0028761514 0.00018989679 -0.0049541662 -0.014969058
0.019731022 -0.0004892997 -0.0012119083 -0.0070948065 -0.010939334 -0.0070709176 -0.01639452 -0.0061731674
-0.006807462 0.00024646116 -0.01618094 0.0014068806 -0.00606834 -0.0003769177 0.013256497 0.00047762648
0.0046742144 -0.0011902151 -0.00040098882 -0.0011109782 0.00019473866 -0.0058053005 0.0063079405 0.00340736
-0.0014037598 -0.007752611 -0.015391559 -0.0020146922 0.00024047462 -0.0026834593 0.00985689 0.00032456833
0.004279749 -0.017965343 -0.011517995 -0.00017639608 -0.008324991 -0.012915682 -0.0059259078 -0.0018818858
0.0017886008 0.0006300857 -0.003966528 -0.0019361523 0.0019112603 -0.0048424965 -0.01041366 0.0016658666
-0.00058134604 -0.0080898255 -0.0014107695 -0.002956178 -0.0024408787 -4.755304e-05 -0.011977354 -0.00034954285
-0.0014739045 2.2959155e-06 -0.00072311756 -0.0002121942 0.0018043844 -0.0094021605 0.0032996335 -0.015098333
0.000101893806 0.0006490059 -0.0038586068 -0.0007636859 0.00042210493 -0.0021640495 0.013039953 -0.008226875
0.0009577256 -0.00024996232 0.0058860867 -0.0055786828 0.000105702304 -0.0027094265 0.0038145978 -0.008058701
-2.0831438e-05 -0.012307621 1.1358614e-05 -0.0009367694 -0.011729164 -0.0010552233 0.0023903328 0.004502379
-0.003700408 -0.000752856 -0.0067757913 -0.00036289092 0.016025411 -0.0052103107 -0.02035409 -1.6697926e-05

convs.1.lin_l.bias f4 [128]
00000000: c6d6 0ebc c907 fbbc 5108 5cbc 43ff 113c
00000010: 0cf3 aabd afe5 2a3b 7990 803c 7c3b f73a
00000020: da0b d03c 9786 a1bc 684c d83b 4fea 51bb
00000030: 7711 0f3b 291e 37bd 0dc4 ca3c 51d5 923d
00000040: 548b 03bb e7e9 ee3b c6ba 4f3d 2fb5 503a
00000050: b4a6 603c d21a d5bd 009b 0d3c e5ea 24bd
00000060: d4e7 7d3c 98aa f93b 1388 89bc 41e2 10bc
00000070: 246d 2a3d 46af 97bd 7255 973c a085 62bc
00000080: 7e0f b73b 85ac 23bd 8a61 4fbc 4da9 713b
00000090: ebb5 bdbb 733c 913c fd57 efbc 9ddc 15bd
000000a0: 98cb 08bd 4452 ffb9 01c1 473c e776 243c
000000b0: 43df bdb9 350f 6fbb 8446 8e3c 140d 6f3d
000000c0: 37cf b9bd 3e4d a73d 4ed3 cabc 3416 2ebd
000000d0: b652 9e3c ba0c b43d 1559 10bc c829 ce3b
000000e0: 17f5 59bc 3d88 453c 16f5 e83c 720f 7bbc
000000f0: e787 adba 9fba 00bd c8bc cf3b 33df a53d
00000100: e8d2 62bc b156 c939 fcec 283d d76f 21bb
00000110: b126 643d faf8 453d d047 28bd 6b0c 46bd
00000120: 7600 493d 0a50 783c d129 89bc 6194 03bb
00000130: acb7 68bd 0dfd bebc 43f4 95bc 0b07 b9bc
00000140: 6804 45bc cfa6 783c 014f ac3a 2bac 883b
00000150: 8980 b63c 197f ad3b 660b 3b3c 417f eebc
00000160: 83ba 2c3d 0fd6 25bb 719d 863c 0bc7 1cbb
00000170: 0a8b e6bc aceb c53d 1590 d5bc 7639 db3b
00000180: e2fc 723d e22f 953a cf6a 11bd a296 f3bc
00000190: f37f 20bc f454 66bd 606e 66bd e3e8 b1bc
000001a0: 001c bbbb 92dc 70bc 6d19 5c3d 9fa8 183c
000001b0: 378e 733d 31cd 123b 5166 05bd 96be 91bb
000001c0: 9093 d43b 2951 0bbd 2f46 be3b b0bc 9dbd
000001d0: 981a c23d d5b4 a33c fc0e 5b3c 3f4d 30bd
000001e0: 345c 29bd ba2d e9bc 88d7 823d 5f26 c13a
000001f0: 8585 ce3c 2566 dc3c e3ef af3d 583e 003c
-0.008718198 -0.03064336 -0.013429717 0.008910957 -0.08347139 0.0026076843 0.01569389 0.0018862332
0.025396276 -0.019717498 0.006600905 -0.0032030528 0.0021830478 -0.044706497 0.024751687 0.07169593
-0.002007206 0.007291067 0.05071523 0.0007961569 0.01371162 -0.10405506 0.008642912 -0.040263075
0.015497167 0.0076192133 -0.016788518 -0.008843006 0.04160799 -0.07406478 0.01847336 -0.013825804
0.0055865636 -0.03995945 -0.0126575325 0.0036874593 -0.0057895086 0.01772902 -0.02921676 -0.036587346
-0.033397287 -0.00048698683 0.012192012 0.010038114 -0.00036215232 -0.003647757 0.017367609 0.05836208
-0.09072726 0.0816903 -0.024758961 -0.042501643 0.019326549 0.0879149 -0.008810301 0.006291602
-0.013303063 0.0120564075 0.028437179 -0.015323507 -0.0013239355 -0.031427976 0.006339643 0.080992125
-0.013844229 0.00038402298 0.04124163 -0.0024633312 0.05570096 0.048333146 -0.04108411 -0.048351686
0.049072705 0.015155802 -0.016743572 -0.0020077454 -0.05681579 -0.023314023 -0.01830495 -0.022586366
-0.012024976 0.015176489 0.0013146104 0.0041709146 0.022278087 0.0052946922 0.011416292 -0.029113414
0.04217006 -0.002530459 0.016432496 -0.002392235 -0.02814247 0.096640915 -0.02606968 0.0066901995
0.0593232 0.0011382068 -0.03550225 -0.029734913 -0.0097961305 -0.05623336 -0.056257606 -0.021717494
-0.005710125 -0.014701026 0.053735185 0.009317546 0.0594618 0.0022400136 -0.03256828 -0.0044477684
0.0064873174 -0.034012947 0.0058067064 -0.07702005 0.094777286 0.019983688 0.013370272 -0.043042418
-0.041347697 -0.028464187 0.063887656 0.0014736167 0.025210151 0.026904175 0.08590677 0.007827364

convs.1.lin_r.weight f4 [128, 128]
00000000: 9b54 993a a2ad 9037 ed7d e539 057f bbbc
00000010: 2cee 653a b230 9038 3af9 1238 c657 03bc
00000020: ce95 f4bc 3f9f 3fbc a20b abbb 9cc0 42b8
00000030: 9271 43bd a9c4 31bd baf4 5dba 7c8b 993a
00000040: 981b dabc d972 12bb e6b2 a83b 28e6 c8bb
00000050: 76fa 3438 2ebe e9b9 cb1e 2e3b 39cd 5f39
00000060: 05d4 903a 1c32 263c 1650 083c fee5 53bb
00000070: f69a 52ba fc84 1fb8 5e1b 4a3c 1768 1d3c
00000080: 7de4 f7bc 6cdb ecb9 300e 113b 4e73 c63b
00000090: 822b b33c 7077 653c 21de 033b 7b61 02bd
000000a0: 1ab2 79bc e043 1939 878e 10bc 32e5 563a
000000b0: 9499 e23b 9ff3 9339 88b6 a23a 5493 df3a
000000c0: 32c8 3c3c 5250 ef3a fcd2 3d3a 132e d63a
000000d0: d0dc 9438 351b bf3b f440 e33b 1b46 c03b
000000e0: 06b7 493a d067 bb3b 8c77 843b 7f15 1b3a
000000f0: 71ab 9139 a622 143b a331 fa3b d403 903a
00000100: 0a44 0fbc 8015 403c 32af e2bb 0203 053a
00000110: eb7f fbbb 003f d33c a9db 3cbd dcdb 4638
00000120: 99fc 1bbd 12f0 5b3b c805 a4bb 1549 413b
00000130: 13f1 543a 8380 a1bc d8f0 463a aef5 2038
00000140: 0878 8437 9c08 38bc 3c39 d53b 38f6 7bbb
00000150: a900 623b 94d2 4dbd 26dd 513c 220f 3538
00000160: 8bfc 0f3b 1c08 a537 d175 7f3a 1882 9cbb
00000170: e3d9 93bc ece3 c43a 3022 943c f299 fd39
00000180: 0298 9238 9a20 3b3b 2b3c 133c 43d4 81ba
00000190: 9914 343a 8b48 63bb cbda ca3c 09ea 453b
000001a0: aa42 4bbc 4c48 a638 4edc a2bb 0f13 b1bc
000001b0: 26e5 103a fff3 383b 249d 673b 06b5 033a
000001c0: b6b1 3f39 aa14 5a3b 66c9 85b9 0d66 833b
000001d0: 32d4 c43a f046 6cba 6e83 59bc fc17 a3bc
000001e0: c59f ccbb fe08 2b3b 4706 c93a ac0b b739
000001f0: d9e7 2c3b 334a 8f3b 1d0e c2b9 c77f 5b38
00000200: 8423 64b9 2c62 2cb7 ea3d aa38 5ec8 3abc
00000210: 93d7 8e3a bd3a a138 8e63 2ab7 bf37 ae3b
00000220: 9ceb cabc 02ba 643c 876b c2bc e58d 983a
00000230: c313 0c3d da78 293d 4f77 7bbd 602a 5b3a
00000240: 8e49 54bc e5ee 5eb9 9557 303b da86 9abb
00000250: b85d a137 e169 aa3a 3e54 17bb 6e88 ec39
00000260: 9b19 d2bb 8ac5 86bb 1bdd e73b 6246 5dbc
00000270: 8577 923b 73fe 5b39 bba4 e1bb 0ef4 1a3c
00000280: 76d1 c4bc 185f 4737 63e2 96ba aec9 faba
00000290: d60b 45bc 1f70 dfbc c862 95bc 2eec c43b
000002a0: 8e8b 30bb 60b7 2db9 a0df 583a 00a7 8f3b
000002b0: 3eaa 843a 39d5 da3a 5d99 023b 1219 88ba
000002c0: 1780 0dba 3ca3 20b9 c997 8bb8 9ca8 53ba
000002d0: fea7 bcb9 fb7e 15bb 9a98 4a3c a366 0c3a
000002e0: 702c b839 1814 a23a d510 263c bc13 a1bb
000002f0: 58ea 5338 cc85 50ba bc6f 913c dd7e 64b9
00000300: 9d32 bdba 6864 52bc b3cc 8a3c a0ec 3739
00000310: ad05 fabb aa95 acbc 8805 e1bc 3036 dabb
00000320: 7e67 b33c 2afc 0dba e0f7 c8b9 0a2f 75bb
00000330: ac51 593a 0cfd f93b ecc5 34bd ea90 3abb
00000340: cffd beba a5a5 593c b4a9 bf3a 5a85 f53c
00000350: 4091 303b e7e0 9bbc f550 67bc 6c93 b738
00000360: 0253 0d3a 2604 5a37 b365 2cba 3c94 c9bb
00000370: 245a d0bd ace0 8e3a 370a 33bc 3968 063c
00000380: 14ff 35b8 ce98 31ba b528 433b 1f3a c039
00000390: 6089 62b7 5a7c e0ba 49f2 a6bc ebfd 2ebd
000003a0: 6942 053b 8a14 2f38 b67f 77bc e984 6ebd
000003b0: d857 9e39 8480 62ba d26e b3ba e4f7 81bb
000003c0: 0127 ccb8 fe44 aebb ac4a bbb9 dee3 893b
000003d0: 3d54 00bd 01e2 a0bb 1e7e dabc a1c4 723c
000003e0: 512b d1bc a818 6bba c040 02b9 b451 5bb9
000003f0: 886a b8bb 5ee9 293a 026d d53b d1e8 84b6
0.0011698188 1.7246992e-05 0.00043772106 -0.022887716 0.0008771147 6.875525e-05 3.5041223e-05 -0.008016532
-0.029856589 -0.011695682 -0.0052198926 -4.6432586e-05 -0.04771573 -0.04340044 -0.0008466948 0.0011714543
-0.026624486 -0.0022346287 0.0051482795 -0.0061309524 4.3148604e-05 -0.00044582918 0.0026568647 0.00021343389
0.0011049515 0.010143783 0.008319875 -0.003233313 -0.0008033955 -3.8032405e-05 0.012335626 0.0096073365
-0.030260319 -0.0004517691 0.00221337 0.006056226 0.021871332 0.014005527 0.0020121413 -0.031831246
-0.015240217 0.00014616502 -0.008823044 0.0008197605 0.0069152806 0.00028219537 0.0012414018 0.0017057457
0.01152234 0.001825819 0.0007241217 0.0016340635 7.0983195e-05 0.0058321008 0.0069352333 0.005867732
0.0007694814 0.0057191625 0.0040425714 0.0005915984 0.0002778429 0.002260366 0.0076353117 0.0010987469
-0.008744249 0.011723876 -0.0069178576 0.00050739956 -0.007675161 0.025786877 -0.04610792 4.741164e-05
-0.038082693 0.003355984 -0.005005572 0.0029493023 0.0008123081 -0.0197146 0.0007588989 3.837578e-05
1.579152e-05 -0.011232521 0.006507067 -0.0038446318 0.0034485257 -0.05024965 0.012809074 4.3167856e-05
0.0021970596 1.9673309e-05 0.0009745034 -0.0047762506 -0.018048232 0.0015021539 0.018082708 0.0004837062
6.990136e-05 0.0028553368 0.008986513 -0.0009905178 0.00068695244 -0.003468069 0.024762532 0.003019931
-0.012406031 7.928963e-05 -0.00497011 -0.021615533 0.000552731 0.0028221605 0.0035341466 0.0005024228
0.00018281382 0.0033276477 -0.0002551779 0.004009968 0.0015016852 -0.0009013256 -0.013275964 -0.019908898
-0.006244632 0.002609789 0.0015336954 0.00034913176 0.002638331 0.004372859 -0.0003701308 5.233267e-05
-0.00021757005 -1.0274856e-05 8.117764e-05 -0.01140031 0.0010897986 7.688019e-05 -1.0155969e-05 0.005316704
-0.02477055 0.013960363 -0.023732914 0.0011638968 0.034198534 0.04137502 -0.06139308 0.00083605014
-0.01295699 -0.00021260565 0.0026907672 -0.0047157826 1.9236337e-05 0.0013001525 -0.0023090984 0.00045115076
-0.006411744 -0.004112904 0.0070759184 -0.01350555 0.0044698142 0.00020980257 -0.0068860925 0.009457601
-0.02402566 1.1883465e-05 -0.001151156 -0.0019133592 -0.012026748 -0.027275143 -0.01823558 0.0060096
-0.002693865 -0.00016566878 0.0008273069 0.0043839216 0.0010121537 0.0016695625 0.0019927837 -0.0010383448
-0.000539781 -0.00015319599 -6.656309e-05 -0.0008074136 -0.00035983318 -0.0022811282 0.012365485 0.000535587
0.00035128323 0.0012365608 0.010135849 -0.0049156826 5.052457e-05 -0.00079545076 0.017753474 -0.00021791035
-0.001443464 -0.0128413215 0.016943311 0.0001754039 -0.007630071 -0.02106746 -0.027468458 -0.0066592917
0.021899935 -0.00054162985 -0.00038331654 -0.003741207 0.0008290063 0.0076290425 -0.044134066 -0.0028467723
-0.001457149 0.013284122 0.0014622719 0.029970814 0.0026942044 -0.01902814 -0.014118423 8.7535795e-05
0.0005391092 1.2994778e-05 -0.00065764337 -0.006151704 -0.10173443 0.0010900698 -0.010927728 0.00820356
-4.3391323e-05 -0.0006774784 0.0029778902 0.00036664397 -1.3502635e-05 -0.0017126903 -0.020379202 -0.042722624
0.0020333773 4.174238e-05 -0.015106132 -0.05823222 0.00030201557 -0.0008640366 -0.0013689643 -0.0039663184
-9.734743e-05 -0.005318283 -0.00035723054 0.004208072 -0.031330336 -0.0049097543 -0.026671465 0.014817388
-0.02553335 -0.00089682126 -0.00012421887 -0.00020915904 -0.005627934 0.0006481613 0.006513239 -3.96101e-06

regressor.0.weight f4 [64, 128]
00000000: 2072 c3bb 907d 2b39 1325 afb9 5a06 0f3a
00000010: 8ed5 64bc 8896 f638 3c28 033a 7ee4 27bb
00000020: e0da c23a d2d4 93b9 c690 2abc 0f7c 953a
00000030: d5d5 f8bb 0f4b 943b 635e 803c 1aae e138
00000040: f64c 6e39 b921 75ba 97e3 9dbb e94f b0ba
00000050: 3c39 38ba aaab e63b 81aa 00ba 687f 2aba
00000060: 7013 a538 3de9 8cb9 ac26 93ba ba99 4fba
00000070: 6dd9 873a 99bb e639 0b81 9d3a ecb1 96b8
00000080: d679 9839 5b09 bcba d4b6 e0b9 41a2 0039
00000090: e499 58b8 0208 143a 9317 13ba e3a1 3dba
000000a0: e215 74ba 62a6 7fb9 5bbc c4b9 0406 003a
000000b0: 61cf 7b3c 0ee0 04ba 5e07 e739 6ffc 623a
000000c0: eac1 7db9 ca59 9b3b a2e5 e2ba 9c7f 17ba
000000d0: d374 02ba 5450 88b8 39f2 c5b9 8bac 80ba
000000e0: 7c70 b6b9 943f d039 1356 283b 2cc2 f6b9
000000f0: dd02 6538 686b 6b3b 7a6f 8bbb 681c 363b
00000100: 0efd eb39 38d2 fbb7 4ef8 3938 325a cdb8
00000110: fe94 2e3a 6bea dc3a 9b42 84b9 87b8 2ab9
00000120: 9db0 05ba 3017 773c a736 873a 380b 66b9
00000130: d3d8 9ebc 637f 03bb b4e9 243a fd7a acba
00000140: ba84 1c3a 5e1e e139 b5f0 dcb8 ec44 ccb8
00000150: 49fd 41bb cc21 a8b9 cd74 dab8 bcb0 26ba
00000160: 05f1 8eba 1f3c 633a 1a05 033b 1e60 8539
00000170: ee83 41ba 102c 71bc f85b 21b9 db3d aabb
00000180: 9186 df3a f7db 81ba bf80 bfba 878e 6aba
00000190: be53 913b 68b4 c2ba e6d4 a63b 1293 1cba
000001a0: ffeb 6038 9682 aa39 fc4e 483a 712a be39
000001b0: 4001 b7bb a4fe 4d3a 881c 2f38 f6e9 3c39
000001c0: 638e 17bb 0639 00ba 772f 0d3a 2318 3fba
000001d0: 42e1 053a a9f3 bfba c6b4 013b c00a b7ba
000001e0: 9b49 adba d5b6 c8ba 6a17 b1bb f187 b839
000001f0: 3d7f 223c ca1a 4fb9 6685 2d3c 3868 c639
00000200: 19cf 0dbd 68c1 08bc 415d e03c 47ab d43c
00000210: 0076 f93d 48ed b7bb 06fa 0a3d baae 273c
00000220: 3a24 3e3c 8207 ccbc 2ae8 a2bb 4e65 003d
00000230: 83c6 8fbb b560 073d 1ea7 85bb 0628 d43c
00000240: 45e0 b8b9 2bf6 c9bc c74f 3dbd 3826 0abd
00000250: 358f 4abd 5025 473e 7508 303d 03a4 d7bc
00000260: aaa0 ccbc 171a 72bc 8cfa 993c 98c5 5f3c
00000270: dc03 ef3b 146c e4bc 2d27 dfbb cf47 5b3c
00000280: 0d7f e53c 343c 35bc eeac ba3c fce1 0038
00000290: 97cf 8e3c 0e84 e43c 011a 143c 43b3 a7bc
000002a0: cca8 bdbc 774f fe3b 4364 9dbb bc4d 593d
000002b0: 03a7 5d3c 661b 403c 9f13 c23c e71b b83c
000002c0: 683d e1bb 4ee7 d1bd 3640 bcbb b682 52bd
000002d0: 9c94 493c bcfa 9a3b 9cce 1b3d 7eeb 043d
000002e0: 3ddf dabc 7022 b1bc 4730 b13c 3574 883c
000002f0: a4d4 a63c 3b63 873c 9bb8 343c 80f3 b0bd
00000300: bbeb 9c3b 3b15 1cbd 4a5e bc3c 22cf 8fbc
00000310: 0eb3 543c b7aa c13c 473a ecbc d13e 0fbd
00000320: 13b0 283d f431 c4ba ecb0 82bc afa6 693b
00000330: 372f 7c3d fee8 a2bc 0c20 f33a bb8e e7bc
00000340: 87ec a8bc 8cbf f13c 77ec 273a 367a 99bc
00000350: 599b bd3b 6093 d63c 809a 433a 89c2 f3bc
00000360: 7667 e73c d7b4 22bd 72e1 94bc 9248 223d
00000370: 4f06 38bb e25e 13be 040f 28bd adf7 933b
00000380: 3b47 743c e8d9 173d 6883 98b9 7648 cebc
00000390: 0490 8a3b 6b87 9dbb cb92 5f3d e00a 27bd
000003a0: 7f59 083c cf12 aa3b c9d7 493c dca0 0b3d
000003b0: bda7 5ebd a6c8 99bc 599a 2dbd ac17 9e3b
000003c0: 76a0 d13c 48dc 92bc 4e47 e93c 8447 d2bb
000003d0: f66b a83c ca4d ed3b cc74 b6bc 2415 afbc
000003e0: b27a 20bb df1b 90bc 6368 98bd daec e53c
000003f0: ff0b b5ba 6342 163d 481d 0abe ef74 bcbc
-0.0059645325 0.00016354606 -0.00033406224 0.00054559635 -0.013966931 0.00011758233 0.0005003249 -0.002561837
0.0014866255 -0.00028196588 -0.010410493 0.001140477 -0.00759385 0.0045255492 0.015670007 0.00010761265
0.00022726119 -0.00093510334 -0.0048183906 -0.001345155 -0.00070275716 0.007039507 -0.00049082196 -0.00065039704
7.8714336e-05 -0.00026876657 -0.0011226735 -0.00079193304 0.001036448 0.0004400879 0.0012016607 -7.185698e-05
0.00029082474 -0.001434605 -0.00042860827 0.00012267476 -5.1641735e-05 0.0005646945 -0.0005611118 -0.0007233901
-0.0009311122 -0.00024380677 -0.0003752437 0.0004883709 0.015369267 -0.0005068787 0.00044065242 0.00086588314
-0.00024200199 0.0047409283 -0.0017310868 -0.0005779208 -0.00049765146 -6.4999476e-05 -0.00037755238 -0.0009817047
-0.00034797553 0.0003972022 0.002568607 -0.00047065446 5.460052e-05 0.0035922173 -0.0042552324 0.0027787928
0.00045011233 -3.0019422e-05 4.433869e-05 -9.791962e-05 0.0006659775 0.001685453 -0.00025226627 -0.00016281205
-0.0005099865 0.015081212 0.001031597 -0.00021938689 -0.0193905 -0.0020064942 0.0006290928 -0.0013159212
0.00059707055 0.0004293797 -0.00010535253 -9.740316e-05 -0.0029600433 -0.00032068638 -0.00010416806 -0.0006358733
-0.001090557 0.00086683215 0.0019992054 0.0002543935 -0.0007382025 -0.014719978 -0.00015388418 -0.005195362
0.0017053654 -0.0009907474 -0.0014610513 -0.000894763 0.0044350317 -0.0014854791 0.0050912974 -0.0005972843
5.362555e-05 0.0003252222 0.0007641164 0.00036271245 -0.005584866 0.0007858074 4.1749823e-05 0.00018016234
-0.002312564 -0.00048913097 0.0005385796 -0.00072896684 0.00051071134 -0.001464476 0.0019791587 -0.0013964996
-0.0013220789 -0.0015313277 -0.0054044025 0.000351965 0.009918031 -0.00019751038 0.010590887 0.00037843152
-0.03462133 -0.008346893 0.027388217 0.025960578 0.1218071 -0.005613003 0.033929847 0.010234529
0.011605317 -0.024905924 -0.004971524 0.03134661 -0.004387678 0.03305121 -0.00407876 0.02589799
-0.0003526231 -0.024653515 -0.04621866 -0.033727854 -0.04945298 0.19447827 0.042976815 -0.026323324
-0.024978954 -0.014776728 0.018796228 0.01365795 0.0072941612 -0.027883567 -0.00681009 0.01338382
0.028014684 -0.011061717 0.022787537 3.0728042e-05 0.01743297 0.027895 0.009039403 -0.02047122
-0.023151778 0.007760938 -0.004803212 0.05305265 0.013528588 0.011725282 0.023690997 0.022474242
-0.0068737753 -0.10249196 -0.005744959 -0.051394187 0.012303498 0.004729597 0.038038835 0.032451145
-0.026717776 -0.021622866 0.021629466 0.016656974 0.020365067 0.016526809 0.0110303415 -0.08640194
0.0047888434 -0.038106184 0.02299418 -0.017554823 0.012982143 0.023640973 -0.028836383 -0.034972016
0.041183542 -0.00149685 -0.015953504 0.003565233 0.061568465 -0.01988649 0.001854898 -0.028266301
-0.020620598 0.029510282 0.00064057804 -0.018735033 0.005786341 0.02619332 0.0007461682 -0.029755848
0.028247576 -0.039723244 -0.018173907 0.03961999 -0.0028079932 -0.14391664 -0.041029945 0.0045156092
0.014909561 0.037073046 -0.00029089605 -0.025181036 0.004228594 -0.004807403 0.054583352 -0.040781856
0.008322119 0.0051902304 0.012319514 0.034088954 -0.054359186 -0.018772434 -0.042383526 0.0048245993
0.025589209 -0.017927304 0.028476384 -0.0064172167 0.020559292 0.007241939 -0.02227249 -0.021372385
-0.0024487195 -0.017591415 -0.07441785 0.028067041 -0.0013812779 0.036684405 -0.13487732 -0.023004977

regressor.0.bias f4 [64]
00000000: 6417 d9bc 1fec 0bbc 7468 69b9 a5a8 03bc
00000010: f951 31b4 3338 4fbc 1aaa 5fb9 860d b7bd
00000020: 740e 58ba 304f 21b9 7fd8 353d c67b 9abc
00000030: 9840 003d 2d64 8abc 6fbe afbc b80a 0e3c
00000040: 3d9c 54ba 3f69 73bc ebaa 5bbd cbf2 00bc
00000050: 6e4b 673c 682e 403c 199f 07b8 a6ed ed3b
00000060: c2da 1cbd 9ec4 063d 990f 933b 99ff 073c
00000070: 67c5 62bd 9417 e2ba 51de 18bd 0869 34be
00000080: 8ea6 e5bc 561c d33b 0a70 033c 649a c83b
00000090: 8918 373d d1cf 01bc 988a b63d 9eae cdb9
000000a0: 442b 313a 8724 bf3a 7a3a 313d f98c 8b3b
000000b0: 7cbf 543b 674e e73a 1b75 4ebb f6e3 acbb
000000c0: a8f6 b1bd e0cf 8bb8 771c 7fbb 7f33 a4b5
000000d0: e41e 313c d983 80b9 e7db 2cbc 109a 8eb8
000000e0: 70f9 163c 3da6 af3a 63aa 36b7 cee3 a7bc
000000f0: 8452 27be 3126 e13d 84a7 b63c cb55 bb3b
-0.026500411 -0.008540182 -0.00022259523 -0.008035813 -1.6514231e-07 -0.012647676 -0.00021330305 -0.08938126
-0.00082419 -0.00015383656 0.04439592 -0.018857848 0.0313116 -0.01689347 -0.02145311 0.008669548
-0.00081104395 -0.014856636 -0.053629797 -0.007870386 0.014117105 0.011729814 -3.233468e-05 0.007260996
-0.03829456 0.032902353 0.0044879434 0.008300685 -0.05536404 -0.0017249458 -0.037321392 -0.17618191
-0.028033521 0.006442587 0.008022318 0.0061219204 0.044701133 -0.007923082 0.089131534 -0.00039230747
0.0006758461 0.001458303 0.04326866 0.0042587486 0.0032462766 0.0017647267 -0.0031502906 -0.0052761985
-0.08689624 -6.666756e-05 -0.0038926878 -1.223394e-06 0.010810588 -0.00024512297 -0.010550476 -6.799784e-05
0.009214744 0.0013400983 -1.0887717e-05 -0.020494368 -0.16340071 0.109936126 0.022296675 0.0057170144

regressor.3.weight f4 [32, 64]
00000000: ad91 c030 997a fbbb cfd2 f6b0 9498 acb4
00000010: 225d 1c31 6ed4 02b3 9520 4233 c6b9 f639
00000020: 7d1d baba cbb9 87b2 2b76 c5b0 db1b 58bb
00000030: 34a9 4c3b f087 44b1 7345 b7bb c519 25b2
00000040: 39a1 5db8 1fe7 1f32 d784 8333 2579 1436
00000050: be6c 02b8 5de7 07ba eefd 3db4 1a28 56b7
00000060: 1acc b231 526b e8b6 17eb bd3b 8ae2 38b1
00000070: fc4a 1ab8 de31 8eb2 b0fb 35bc 84d5 a635
00000080: f034 3831 69a8 2331 0d4d 8eb4 5a97 87b3
00000090: 6b78 4d34 d976 2a38 7e49 2bb1 b403 dcb0
000000a0: 89ac 36b0 4719 6d32 142d a230 b489 21b3
000000b0: 06c8 67b9 c092 c2ae 585a db36 56cf 8fb0
000000c0: 5e97 ddb8 494a c73a bce1 8830 50ce 0931
000000d0: a120 1438 9217 73b9 3ec8 ebba 4f85 5b31
000000e0: 2a35 6338 5bc3 0ab0 1ab2 7333 50bf a0ad
000000f0: ee07 b7af 63b1 62ba d31d 47b4 0ba9 c7b3
00000100: 6f0f 98b8 4792 ddba ae6a e935 48f4 87b5
00000110: ce69 e331 0d70 783b 2a0d 6fb4 3fd0 263a
00000120: 602b 3f39 6748 6433 a45b e739 5358 043d
00000130: a862 49bb 5c5c 013a 15ba 8239 27a9 99bc
00000140: 86fb ab34 f005 2db9 842d 593a c1f2 fd37
00000150: 8592 4cb9 3c9a 2e37 2d37 b536 e688 cfbb
00000160: 6c80 c538 7840 3836 02b4 44bc 9eab 7a36
00000170: 8d1d c0b9 6e16 8631 fa01 e5bb b3b2 f339
00000180: d74a e3b9 c9ff 5739 24ab 0739 a043 c1b8
00000190: f03b 7339 ddb4 a9bb abaf 59b8 7ee1 bcaf
000001a0: 57dd 58ba 22c5 b639 ff9b b337 73db 143b
000001b0: 7a22 913b e29b 5136 b827 8935 1812 9f37
000001c0: 1d95 3abb 7856 04bc 3dd4 8436 0949 a1b0
000001d0: 76a5 9138 9b25 70bb 740f c4bb e77c b1bb
000001e0: a2e0 94bb 2c15 4839 76e8 5439 8c78 05b8
000001f0: 49fd 1438 d801 7e38 1223 1a39 b514 3bb9
00000200: e8ba 4dbc eb08 1e3e cb4b 8db6 fe45 a230
00000210: 14a4 5b32 61f6 83bc b29f 5ab1 d2e4 00bd
00000220: 4d9e 4ab8 27b9 43b7 ee68 81bb ac7d 073d
00000230: 9e48 803b be60 4d3c a206 a93c 150e 0abd
00000240: af8a 17b5 0054 013c 9cad 943d aa80 503c
00000250: 7cb8 9ebc afc0 073b c2ad 21b8 9b66 343d
00000260: 5aa4 8fbd be0a 07bc fc7d 3dbb c83c 8036
00000270: a864 a9bd 2a92 4431 6721 20be 1e05 5c3d
00000280: f40a 0ebd a683 a6bd 8968 42bc 1060 fcba
00000290: 0dd0 94bc 6326 4fbd ee60 713c f20e 2f31
000002a0: 8041 9938 4014 8abb 52d0 1639 eaea b1ba
000002b0: 9513 4fbc 8db6 2dba a63a af31 4b2c 37ba
000002c0: bf1b 823a 9a41 ba33 536d debb 9a10 6831
000002d0: 7efd e93a 4733 2235 8ec3 1fbc c1c3 c6b3
000002e0: 508a bbbc 5889 7b39 b17a 25b2 638d 073b
000002f0: 9f0d 943d a402 05bd 2125 6c3b 076f 3ebd
00000300: a2b0 d538 0916 ce3d e862 8cb8 caaf b530
00000310: 99c1 4b31 3948 c03c 50c3 00b1 ae7b 813a
00000320: 1159 15ba ee40 75b8 1d46 46bd e5bd d7bc
00000330: c8e2 5fbb 319b 25bd 5ff8 b03d 85d4 4d3d
00000340: 0c16 c3b1 4618 063b 6ebd 4e3c 8e52 8c3c
00000350: 378f 58bd 254e 07bb 4ec9 c9b8 6363 bd3d
00000360: 0710 89bc 8c90 a6bc 6391 bb3c f3bf 5cbb
00000370: e916 053d fde1 c430 83d1 b03d 0919 4b3d
00000380: 7f6d 903d f010 953d f70a d23b e57b 183d
00000390: 74a4 5bbd 98d6 f138 6c77 95bd 4c3a ffb0
000003a0: 8af5 4fbd ef0f 93bb 3b92 06bc 9d8a efba
000003b0: 92d9 f2bb a696 6eba 3a5b 05b0 8c4e cc39
000003c0: f834 3fba 2bce e330 7cb9 713b 749d d3b0
000003d0: 44bc 9ebc f8d9 3db1 4b2e 61bb 5433 8030
000003e0: 1591 ba3d 0bbe aabb 838a fbb0 84f9 013b
000003f0: 0db5 36be 8153 1f3c 24be df3a 0c91 91bc
1.4011242e-09 -0.007674527 -1.7958771e-09 -3.2148512e-07 2.2753928e-09 -3.0461187e-08 4.5198778e-08 0.00047059188
-0.0014199462 -1.5800557e-08 -1.4367222e-09 -0.0032975588 0.0031228783 -2.8599025e-09 -0.005592996 -9.610123e-09
-5.2840656e-05 9.307569e-09 6.124326e-08 2.2124234e-06 -3.109569e-05 -0.0005184317 -1.7694376e-07 -1.2764731e-05
5.2036855e-09 -6.9266325e-06 0.005795847 -2.6904297e-09 -3.6786296e-05 -1.6553653e-08 -0.01110737 1.2430105e-06
2.6805616e-09 2.3815352e-09 -2.6505623e-07 -6.313958e-08 1.913592e-07 4.0641844e-05 -2.492555e-09 -1.6008159e-09
-6.64564e-10 1.3800963e-08 1.1799863e-09 -3.7610974e-08 -0.00022104391 -8.8481666e-11 6.537226e-06 -1.0463548e-09
-0.000105662955 0.0015204634 9.95946e-10 2.00534e-09 3.5316338e-05 -0.00023183067 -0.0017988754 3.1944472e-09
5.417053e-05 -5.0481724e-10 5.673983e-08 -1.8274854e-11 -3.329314e-10 -0.00086476485 -1.8544169e-07 -9.297408e-08
-7.2507995e-05 -0.0016904556 1.7390901e-06 -1.0129379e-06 6.618598e-09 0.0037908584 -2.2263399e-07 0.00063634285
0.00018231338 5.3151236e-08 0.0004412803 0.032310795 -0.003072897 0.0004934722 0.00024934174 -0.018757416
3.203424e-07 -0.00016500778 0.00082846754 3.0272991e-05 -0.00019509539 1.0407119e-05 5.4006437e-06 -0.0063334582
9.4176125e-05 2.7455662e-06 -0.012005808 3.7352797e-06 -0.0003664311 3.9024632e-09 -0.006988761 0.00046481713
-0.00043352574 0.00020599285 0.00012938358 -9.215553e-05 0.00023196614 -0.0051790313 -5.1900435e-05 -3.4357223e-10
-0.00082727283 0.0003486062 2.1411104e-05 0.002271381 0.0044291588 3.1234163e-06 1.0218855e-06 1.8962703e-05
-0.0028470226 -0.008077256 3.9586143e-06 -1.173505e-09 6.944958e-05 -0.0036643508 -0.0059832875 -0.005416501
-0.00454338 0.00019081373 0.00020304494 -3.182194e-05 3.552184e-05 6.0560036e-05 0.00014699649 -0.00017841424
-0.012556769 0.1543309 -4.210951e-06 1.1806944e-09 1.2784785e-08 -0.016108694 -3.1813951e-09 -0.03146822
-4.8307982e-05 -1.1666015e-05 -0.003949276 0.033078834 0.0039149066 0.012535272 0.020633046 -0.033704836
-5.6453695e-07 0.007893562 0.07259676 0.012725988 -0.019375078 0.0020714214 -3.8547216e-05 0.044043165
-0.070137694 -0.008242307 -0.0028914204 3.821773e-06 -0.08271152 2.8604838e-09 -0.15637742 0.053715818
-0.034678414 -0.08130579 -0.011865743 -0.0019254703 -0.018165613 -0.050573718 0.0147325825 2.5474347e-09
7.307809e-05 -0.00421384 0.0001438272 -0.0013574038 -0.012638946 -0.00066266285 5.099838e-09 -0.0006987496
0.0009926482 8.673233e-08 -0.006787935 3.376988e-09 0.0017852036 6.042432e-07 -0.009751214 -9.255701e-08
-0.022893101 0.0002398839 -9.632161e-09 0.0020683638 0.072291605 -0.03247322 0.0036032873 -0.046492603
0.00010189532 0.100627966 -6.694143e-05 1.3219446e-09 2.9650435e-09 0.023471938 -1.8737474e-09 0.0009878778
-0.0005697171 -5.8473022e-05 -0.04840671 -0.026335666 -0.0034162272 -0.040431205 0.08641123 0.050251503
-5.6777534e-09 0.0020461245 0.012618406 0.017129209 -0.052870955 -0.0020645943 -9.621923e-05 0.09247472
-0.016731275 -0.020332597 0.022896474 -0.0033683747 0.032492552 1.4325107e-09 0.08633711 0.049584422
0.07052135 0.07278621 0.0064099985 0.03722753 -0.05362363 0.00011531747 -0.072981685 -1.8570261e-09
-0.050771274 -0.0044879834 -0.008213575 -0.0018275563 -0.0074111903 -0.0009101428 -4.851476e-10 0.00038968434
-0.0007293965 1.657502e-09 0.003688424 -1.5397021e-09 -0.019376881 -2.762702e-09 -0.0034359868 9.327814e-10
0.091097035 -0.005210643 -1.8302021e-09 0.001983256 -0.17842503 0.009724499 0.0017070216 -0.017769359

regressor.3.bias f4 [32]
00000000: c74b 31bc f2bb 3abc afa5 0bbe a0eb 1aba
00000010: ed74 c83d 1bf2 b73d 542b b63c 2746 d1bc
00000020: 5ab6 30bc 37a6 9f3c fcd7 213c f51b dfbc
00000030: 48f0 dcbd 3b67 a6bc 39e8 d83c 5fbe 95bc
00000040: d113 033d e041 d83d 0bf1 b33c a422 d9bb
00000050: b61c 193c 428e 9f3d db0d 5f3d b011 9c3a
00000060: 8065 9abb cb92 0e3d 9964 c1bc c2d1 adbc
00000070: b045 80bd 17c4 263d 6d4d 16ba b6ce 8dbb
-0.010821289 -0.011397349 -0.13637422 -0.00059097447 0.09787927 0.08981725 0.022237457 -0.025546147
-0.0107856635 0.019488437 0.009878155 -0.02723501 -0.107880175 -0.020312896 0.02647792 -0.018279253
0.03200132 0.1055944 0.021965524 -0.006626444 0.009345224 0.077908054 0.054456573 0.0011907127
-0.004711807 0.03480796 -0.023607539 -0.021218184 -0.06263292 0.04071435 -0.0005733583 -0.0043276204

regressor.6.weight f4 [1, 32]
00000000: 939a 83bc 043d d7bb aad0 01bb d038 1a3d
00000010: 6050 20bd 0721 37bd ed66 fc3c 5753 4dbd
00000020: 8b57 ccbd 83ce 243d 6b0e b13c 7c7a b8bc
00000030: 8551 8bbd 64c1 5e3d e792 3c3d 3da4 2ebb
00000040: 747f 76bc cfcb 23bd 0067 873c ed29 6d3d
00000050: 4b22 323e f62c ffbc 2f6d 8b3d f10d 213d
00000060: 9a96 9cbb 0b7a b8bc ba03 67bc da7e 993a
00000070: 2a84 b53d 977c 433d 1418 8eba cade aeba
-0.016064918 -0.006568553 -0.0019808211 0.037651837 -0.03913915 -0.04470923 0.030810798 -0.050128307
-0.09977635 0.040236007 0.02161332 -0.022519343 -0.06802658 0.05438365 0.046038534 -0.0026648187
-0.015045036 -0.03998929 0.016528606 0.05790131 0.17395894 -0.031149369 0.068079345 0.039319936
-0.0047786953 -0.022519132 -0.01410001 0.0011710778 0.08863099 0.04772624 -0.0010840916 -0.0013341543
