data/graph-save/gnn_model.pth (torch, 185554 bytes, 11 tensors)

convs.0.lin_l.weight f4 [128, 7]
0.20165958 -0.15822089 -0.12999305 0.006951193 0.009836868 0.024465414 -0.0680376 0.13569437
-0.26123375 -0.061087564 -0.0019870861 -0.0031470081 0.0029278237 -0.01254935 -0.037980344 -0.14266819
-0.040532377 0.0027306678 0.07208187 0.04477153 -0.02232251 -0.11854967 -0.005352926 -0.01698317
0.0012721131 0.0869377 0.14531112 -0.002329814 0.027805716 0.028546872 0.018947339 -0.0049277544
-0.011717747 0.011505983 -0.012168827 -0.10365881 -0.14508016 -0.01648735 0.00073420536 -0.020279733
0.12184635 0.002665557 0.02358492 -0.031754836 0.01365958 -0.0007425933 0.018654825 0.012765959
0.00062108604 -0.14198206 0.08662039 0.14251193 0.001060718 0.046557922 0.016877202 -0.0006754977
-0.053155184 -0.030211888 -0.0018193857 -6.242731e-05 0.007255654 0.0015183712 -0.008474486 -0.085267074
0.20088546 -0.06651348 0.00166626 -0.015433151 -0.12120928 0.008220039 -0.08501333 0.2087575
-0.14042713 -0.004626659 0.05344647 0.017079106 -0.006973723 -0.14876008 0.24903654 0.0034959088
-0.00024231998 0.0856634 0.03604164 -0.0016373348 -0.13891864 0.08196901 -0.026077809 0.0016686616
0.04221445 0.10534506 0.0010187658 0.1115703 -0.0730033 0.056419622 0.00067063246 -0.011911671
0.0065254895 -0.0028714095 0.024317767 0.0920567 -0.067003936 0.00010700412 -0.03700116 -0.05822903
0.014167523 -0.025825482 0.020107953 -0.013522441 -0.0007430903 0.0032443635 0.0010545956 -0.004061808
0.07841805 -0.024583504 -0.022911066 0.0025797412 0.022172846 -0.10915947 0.0018598586 0.017865991
0.1738219 0.05853299 -0.0041199387 -0.049444787 0.030805713 0.038717266 0.10269326 -0.08616412
-0.008743133 0.00016231016 -0.17238532 0.12773031 -0.012720294 0.0030172947 0.0007133398 0.0010249754
-0.0014879458 -0.04555844 0.001126469 -0.0003995176 0.006528487 0.009264911 0.011323278 -0.0024092714
-0.055407353 0.0059477156 0.0127618555 -0.080740534 0.26325557 -0.32906014 0.0006068563 0.1925933
-0.31013435 0.106789224 0.022977997 -0.07810592 0.153046 -0.0058458834 0.08066432 0.041982144
-0.023849199 0.006726719 0.023754757 0.0046543838 0.002183198 -0.033498388 0.0415496 0.020399097
0.05697054 -0.21621022 -0.19419517 -0.00896931 0.003524785 -0.0122905355 -0.045594737 0.18900922
-0.21239643 -0.07063395 -0.0016477277 -0.0667855 0.030725535 0.0063522924 0.009919768 0.01517978
-0.0017843195 0.003959399 0.06956146 -0.0022220162 -0.0004946151 -0.19217266 0.2075989 0.21033804
0.005433389 0.05717835 0.00665428 0.055264812 0.0040429994 0.012861933 0.013642592 0.0010819327
0.013439184 0.048012357 -0.019638186 0.22448738 0.029397829 -0.032427568 0.0016255262 -0.15824077
0.022229113 -0.008695172 0.005199788 0.009704114 0.012036064 0.00018226878 0.014122719 -0.019501526
0.0023179273 -0.089142926 -0.05647005 -0.24733095 0.0005503925 0.052003346 0.12705272 0.009563221
0.021996276 -0.06548812 -0.023248153 0.00017954531 -0.027669515 -0.012987816 0.054519683 -0.12596446
0.06458664 0.18340495 -0.0008484069 -0.030854838 0.15788165 0.04013338 0.1696216 -0.16044599
-0.078580245 -0.003100831 -0.003950395 0.12846333 0.000778246 0.11897569 0.1812214 -0.24316001
0.0013888953 0.10829035 0.09332352 -0.0073061795 -0.086872816 0.2762582 0.22846407 -0.005228539
00000000: d97f 4e3e a804 22be e61c 05be d5c6 e33b
00000010: d12a 213c b16b c83c 4c57 8bbd 77f3 0a3e
00000020: 6ec0 85be f436 7abd c639 02bb 093e 4ebb
00000030: bbe0 3f3b ca9b 4dbc 4791 1bbd 9c17 12be
00000040: 4705 26bd 01f5 323b a99f 933d 5a62 373d
00000050: b2dd b6bc 2bca f2bd 9967 afbb 4a20 8bbc
00000060: 08bd a63a 650c b23d 70cc 143e cbaf 18bb
00000070: d0c8 e33c 21db e93c 7337 9b3c 0079 a1bb
00000080: cbfb 3fbc 9783 3c3c c25f 47bc 124b d4bd
00000090: e58f 14be 7b10 87bc b077 403a af21 a6bc
000000a0: 948a f93d a0b0 2e3b 2a35 c13c 5c11 02bd
000000b0: 6ecc 5f3c 98aa 42ba 01d2 983c 5028 513c
000000c0: 61d0 223a bf63 11be 0866 b13d a6ee 113e
000000d0: ca07 8b3a 85b3 3e3d 0f42 8a3c e213 31ba
000000e0: 40b9 59bd ec7e f7bc 7478 eeba 68eb 82b8
000000f0: d6c0 ed3b 1504 c73a 92d8 0abc 81a0 aebd
00000100: ebb4 4d3e 3838 88bd 6866 da3a 54db 7cbc
00000110: 923c f8bd 58ad 063c 781b aebd 87c4 553e
00000120: 21cc 0fbe 3b9b 97bb b0ea 5a3d 7be9 8b3c
00000130: d483 e4bb 9054 18be 6f03 7f3e 9e1b 653b
00000140: 4617 7eb9 4b70 af3d 66a0 133d d79b d6ba
00000150: b040 0ebe 5edf a73d 21a1 d5bc feb6 da3a
00000160: 0fe9 2c3d 27bf d73d 1c88 853a f87e e43d
00000170: c182 95bd 4318 673d 62cd 2f3a 2b29 43bc
00000180: c6d3 d53b 422e 3cbb 0e36 c73c 3988 bc3d
00000190: 5c39 89bd 6667 e038 878e 17bd 9081 6ebd
000001a0: e61e 683c f68f d3bc 6fb9 a43c 3a8d 5dbc
000001b0: f2cb 42ba 639f 543b 5b3a 8a3a ea18 85bb
000001c0: a599 a03d 5863 c9bc fdaf bbbc e010 293b
000001d0: d4a3 b53c 008f dfbd 80c6 f33a b35b 923c
000001e0: 5efe 313e 4ac0 6f3d 8d00 87bb 9e86 4abd
000001f0: 435c fc3c ff95 1e3d d850 d23d d076 b0bd
00000200: 5c3f 0fbc cd31 2a39 c785 30be bccb 023e
00000210: c868 50bc cebd 453b 6cff 3a3a 7858 863a
00000220: 2d07 c3ba 7d9b 3abd 07a6 933a 5876 d1b9
00000230: ebec d53b dacb 173c 4585 393c dee4 1dbb
00000240: d2f2 62bd 0ee5 c23b 1a17 513c 4b5b a5bd
00000250: 6fc9 863e 927a a8be 7015 1f3a 2e37 453e
00000260: eec9 9ebe 4fb4 da3d 5a3c bc3c fff5 9fbd
00000270: 17b8 1c3e d38e bfbb 5633 a53d 78f5 2b3d
00000280: 655f c3bc cf6b dc3b 5699 c23c cd83 983b
00000290: fc13 0f3b 9b35 09bd ea2f 2a3d 021c a73c
000002a0: f159 693d 3666 5dbe 19db 46be 03f4 12bc
000002b0: 1400 673b 3e5e 49bc 8cc1 3abd a28b 413e
000002c0: 737e 59be 88a8 90bd 91f8 d7ba d6c6 88bd
000002d0: 1eb4 fb3c e426 d03b 8686 223c 9db4 783c
000002e0: d4df e9ba d9bd 813b 3d76 8e3d 3f9f 11bb
000002f0: 0fa9 01ba e9c8 44be ce94 543e db62 573e
00000300: 920a b23b d833 6a3d 250c da3b 5b5d 623d
00000310: 237b 843b dbba 523c 2e85 5f3c a3cf 8d3a
00000320: 0630 5c3c 9ba8 443d 43e0 a0bc 05e0 653e
00000330: b7d3 f03c c5d2 04bd 9c0f d53a de09 22be
00000340: d419 b63c 3276 0ebc fc62 aa3b 01fe 1e3c
00000350: e932 453c 671f 3f39 fa62 673c aac1 9fbc
00000360: 5ee8 173b 9190 b6bd 244d 67bd 5344 7dbe
00000370: 3748 103a 7601 553d 1c1a 023e 0eaf 1c3c
00000380: 8931 b43c a31e 86bd e972 bebc 5444 3c39
00000390: 2eab e2bc d9ca 54bc 0850 5f3d d4fc 00be
000003a0: 0046 843d 82ce 3b3e a067 5eba 49c3 fcbc
000003b0: baab 213e e662 243d 49b1 2d3e f44b 24be
000003c0: aeee a0bd 5037 4bbb 5172 81bb e48b 033e
000003d0: 3403 4c3a 87a9 f33d 1a92 393e f0fe 78be
000003e0: 980b b63a 55c7 dd3d 6720 bf3d ad68 efbb
000003f0: 60ea b1bd b771 8d3e 7cf2 693e 2a54 abbb

convs.0.lin_l.bias f4 [128]
-0.07776257 -0.00748849 0.19015248 -0.108080566 -0.023435272 0.15755473 -0.25251463 0.23098451
0.049042918 -0.26483557 -0.215092 0.21077979 -0.026155472 -0.18529394 0.117235444 -0.0505656
0.08777478 -0.170199 0.123435 -0.032970775 -0.020465575 0.23952954 0.04116441 -0.029926568
0.256077 -0.14886619 -0.088821836 0.24449088 0.028534437 -0.078293435 -0.06568046 0.010585285
0.046752445 0.1381954 -0.06385157 -0.15439007 0.20383255 0.0916297 -0.16132827 0.27734393
-0.21713395 0.21748804 0.06861407 -0.36210796 -0.061502002 -0.055267174 0.17091481 0.036476392
-0.21389341 -0.12666628 0.17283121 0.19317968 0.22984447 -0.013154834 0.13443923 -0.12180819
0.012796003 -0.2736331 0.029123837 -0.08692482 -0.13309976 0.24098402 -0.14921933 -0.15125835
-0.081564195 0.27216658 0.060555786 -0.024612479 0.18435064 -0.17918591 0.102551684 0.1749192
-0.29884708 0.217276 0.08856786 -0.08695883 0.24420232 -0.046609595 0.0021371492 0.12866454
0.074164696 0.1255955 0.29972568 0.2126699 -0.22251707 -0.14914908 0.14579819 -0.13928135
0.090809286 0.09749697 -0.2513079 -0.23132955 -0.21949936 0.07601206 0.013955708 -0.01088237
-0.088534474 -0.09176428 0.027742013 -0.19505489 0.23647042 0.09552894 0.27456743 -0.11208024
-0.1405082 0.15844174 -0.11390648 -0.014304117 0.25922891 -0.095041126 0.17384888 0.19623083
0.11227029 -0.09141206 -0.20988506 0.05012777 -0.07698908 -0.16430898 0.008547192 -0.06592115
0.04746836 -0.10379027 -0.21654081 0.2862238 -0.16667357 0.011282756 0.3399072 0.06575218
00000000: fb41 9fbd 0262 f5bb 55b7 423e 5859 ddbd
00000010: 54fb bfbc 0756 213e 9949 81be 3487 6c3e
00000020: 3ae1 483d 8798 87be 1441 5cbe a8d6 573e
00000030: 0044 d6bc b2bd 3dbe 2319 f03d e01d 4fbd
00000040: 44c3 b33d a648 2ebe 7dcb fc3d 5d0c 07bd
00000050: 6ca7 a7bc 3b47 753e 039c 283d 9028 f5bc
00000060: 861c 833e 6170 18be 39e8 b5bd d15b 7a3e
00000070: 0dc1 e93c 4f58 a0bd 7a83 86bd e76d 2d3c
00000080: 7e7f 3f3d 1883 0d3e 9dc4 82bd 6e18 1ebe
00000090: 7bb9 503e 5aa8 bb3d 3d33 25be 0600 8e3e
000000a0: 5d58 5ebe 2fb5 5e3e 8985 8c3d 3766 b9be
000000b0: 86e9 7bbd d55f 62bd 4b04 2f3e 4568 153d
000000c0: e006 5bbe ceb4 01be aafa 303e e5d0 453e
000000d0: 595c 6b3e 5f87 57bc 70aa 093e 9376 f9bd
000000e0: 54a6 513c a319 8cbe 1d95 ee3c a405 b2bd
000000f0: 4e4b 08be 84c4 763e f4cc 18be 78e3 1abe
00000100: 210b a7bd 6b59 8b3e 5809 783d 1ca0 c9bc
00000110: 6ac6 3c3e 837c 37be 9e06 d23d 051e 333e
00000120: 7c02 99be 9a7d 5e3e 1163 b53d 7917 b2bd
00000130: 2c10 7a3e b4e9 3ebd 6a0f 0c3b a3c0 033e
00000140: a9e3 973d 1b9c 003e a575 993e 23c6 593e
00000150: 84db 63be 89ba 18be 1f4c 153e c59f 0ebe
00000160: 38fa b93d 7eac c73d 6eab 80be a7e1 6cbe
00000170: 71c4 60be 36ac 9b3d 7ba6 643c f84b 32bc
00000180: 9051 b5bd e9ee bbbd 3843 e33c 78bc 47be
00000190: 4d25 723e ada4 c33d 1a94 8c3e 538a e5bd
000001a0: 62e1 0fbe 8d3e 223e cd47 e9bd d15b 6abc
000001b0: a7b9 843e eca4 c2bd 7105 323e bcf0 483e
000001c0: f7ed e53d 3f36 bbbd 1cec 56be c752 4d3d
000001d0: 73ac 9dbd 9d40 28be 8609 0c3c ab01 87bd
000001e0: 2f6e 423d fe8f d4bd e0bc 5dbe ed8b 923e
000001f0: 7aac 2abe 4fdb 383c 5108 ae3e 14a9 863d

convs.0.lin_r.weight f4 [128, 7]
-0.04262915 -0.02371021 -0.0401771 0.0017499686 0.032662712 -0.13124862 0.28053144 -0.0845814
0.15711102 -0.14728583 -0.00032584916 -0.042464677 0.06635797 0.07162386 -0.007721047 -0.010523148
-0.04434162 -0.0018460667 -0.050387025 -0.114337325 0.3159581 -0.03724037 -0.16311584 0.24647301
0.010469339 0.10512495 0.11816131 0.0045909327 -0.011448782 -0.020387577 -0.015642613 -0.010230794
-0.05597601 0.020522479 0.17025205 0.012456897 -0.02074456 -0.020864487 -0.0027130311 -0.0011640708
0.004855006 0.15719905 -0.38357967 0.27300757 0.17694828 -0.00014957579 0.14105736 -0.006502919
-0.004538225 0.006598872 -0.014472613 -0.034921855 -0.0003254154 0.059592154 -0.03959426 0.2922517
0.004133602 -0.0013597689 -0.06188087 -0.009828657 0.013461613 0.010831544 -0.0067959814 -0.03153113
0.0013423773 -0.087316535 -0.0011976957 0.036156304 -0.0068849246 0.10208185 0.029759552 0.26280212
-0.28086206 0.0025202194 0.039057277 0.095591076 0.011486963 -0.13562346 0.049866255 0.11204244
0.0035194494 -0.011982174 0.11158234 0.097804345 -0.23741889 0.18061496 0.17208356 0.01035422
0.088695996 -0.06511786 -0.0034675472 0.060612485 -0.017267086 -0.10126435 -0.0019170352 -0.0708261
-0.010644493 -0.0063062217 -0.09301093 0.10079527 -0.08978951 -0.0004986854 0.06633234 0.050927807
-0.050988037 0.0043908535 0.0032104948 0.054542728 0.00042598162 0.007759912 0.03761966 -0.0021529442
0.09439926 0.20694152 -0.08474752 -0.005893332 0.044152 -0.007967078 0.10129497 0.006197283
-0.009209594 0.03170454 -0.007961357 -0.10152736 -0.11761952 0.26687372 0.10437683 -0.17452745
-0.09261046 0.0009305318 0.13093284 -0.10406579 0.16599782 0.004716334 -0.0026228083 0.005905557
0.0006988785 0.048960328 -0.10413513 -0.013187027 -0.0016780992 0.00011298171 0.0057721203 0.0011821918
0.13327065 0.086883895 0.19087376 0.05568267 -0.035795923 -0.2190357 -0.010157099 -0.17175706
0.15849051 0.20663196 -0.042354815 -0.032010958 0.0044648796 -0.002625698 -0.07728115 0.009147364
0.38761306 0.06716828 0.035436217 -0.11111989 -3.5107543e-05 0.1345187 -0.08163869 0.2003558
0.0059298933 0.12966539 0.14327523 0.0046192105 -0.00782038 0.0730294 -0.06174241 0.12935156
-0.10852599 -0.07220849 0.0033953767 0.13210614 0.16049491 0.13050433 0.00066142716 -0.0077412627
0.0036192788 -0.010437116 -0.12772001 0.11538532 -0.004195913 0.041368056 -0.01031756 -0.10111105
0.004351388 0.05018635 -0.09396065 0.15922065 0.106021106 0.010647243 -0.049995087 0.004611204
-0.06326549 -0.08316527 0.2769827 0.18101981 0.098129466 -0.10007071 -0.0016476742 -0.06320636
0.1462881 -0.11065282 -0.0029127588 0.006377587 0.0018410156 0.0020967447 -0.21187323 0.025972174
-0.05917074 0.019850947 -0.10143618 0.0012392331 -0.009746045 -0.026491418 0.0057830564 0.22386691
0.18582055 -0.17106496 -0.092048876 0.00017141571 0.055212352 -0.017719518 -0.005608131 0.22798705
-0.22336023 0.24344651 -0.0018484013 -0.17502439 0.047876865 0.33978328 -0.046151098 -0.011418719
-0.031137437 -0.0017944819 0.037862528 0.17055061 -0.016358927 0.045424663 -0.0934879 -0.020355811
0.0015245936 0.10658796 -0.0071642296 -0.055665642 -0.23702765 0.1784308 0.2141766 -0.010088183
00000000: e79b 2ebd ea3b c2bc be90 24bd 345f e53a
00000010: 56c9 053d 0a66 06be d1a1 8f3e 0339 adbd
00000020: b6e1 203e 19d2 16be bcd6 aab9 71ef 2dbd
00000030: b0e6 873d 88af 923d d600 fdbb 4869 2cbc
00000040: 8f9f 35bd b8f7 f1ba a062 4ebd b029 eabd
00000050: 43c5 a13e 5c89 18bd d707 27be 6c63 7c3e
00000060: 9787 2b3c c04b d73d 8ffe f13d 896f 963b
00000070: ac93 3bbc d903 a7bc f024 80bc 0f9f 27bc
00000080: 1a47 65bd c21e a83c 8e56 2e3e 0318 4c3c
00000090: 7ff0 a9bc 00ec aabc 1ccd 31bb bc93 98ba
000000a0: be16 9f3b caf8 203e 8e64 c4be a6c7 8b3e
000000b0: ee31 353e 72d7 1cb9 5771 103e 7016 d5bb
000000c0: 64b5 94bb 5a3b d83b 8a1e 6dbc 380a 0fbd
000000d0: 849c aab9 e716 743d 972d 22bd 04a2 953e
000000e0: 2b73 873b 463a b2ba cc76 7dbd 6008 21bc
000000f0: 198e 5c3c ca76 313c d3b0 debb c926 01bd
00000100: b5f2 af3a 03d3 b2bd 00fc 9cba a218 143d
00000110: ef9a e1bb 4a10 d13d 4eca f33c 008e 863e
00000120: 27cd 8fbe 442a 253b 86fa 1f3d 41c5 c33d
00000130: d133 3c3c e0e0 0abe 8f40 4c3d 8276 e53d
00000140: 90a6 663b e150 44bc 4885 e43d a54d c83d
00000150: f01d 73be 21f3 383e ac36 303e bfa4 293c
00000160: 3fa6 b53d 835c 85bd ca3f 63bb cc44 783d
00000170: b473 8dbc af63 cfbd 0745 fbba 460d 91bd
00000180: 3d66 2ebc 6ca4 cebb 847c bebd c06d ce3d
00000190: 90e3 b7bd 36ba 02ba 40d9 873d ad99 503d
000001a0: d5d8 50bd 26e1 8f3b 2a67 523b 3268 5f3d
000001b0: 4956 df39 dc46 fe3b 1317 1a3d 6918 0dbb
000001c0: 6654 c13d 7ae8 533e 1c90 adbd da1c c1bb
000001d0: bad8 343d 5988 02bc bd73 cf3d 9412 cb3b
000001e0: d6e3 16bc 9fdc 013d 5a70 02bc 94ed cfbd
000001f0: 81e2 f0bd aca3 883e 85c3 d53d 53b7 32be
00000200: 8eaa bdbd efee 733a 4213 063e 7220 d5bd
00000210: 55fb 293e 7a8b 9a3b 6ce3 2bbb 6783 c13b
00000220: f134 373a a08a 483d cd44 d5bd 660e 58bc
00000230: aaf3 dbba 98f0 ec38 0e24 bd3b c6f3 9a3a
00000240: 1a78 083e 2ff0 b13d 6974 433e 8313 643d
00000250: bf9e 12bd e54a 60be f669 26bc 15e1 2fbe
00000260: 564b 223e 5497 533e 3e7c 2dbd ec1d 03bd
00000270: 204e 923b e713 2cbb 9445 9ebd d3de 153c
00000280: 3875 c63e 868f 893d 9125 113d d392 e3bd
00000290: 7040 13b8 45bf 093e 2f32 a7bd 122a 4d3e
000002a0: 8d4f c23b 01c7 043e beb6 123e bf5c 973b
000002b0: 0d21 00bc 7090 953d 9ce5 7cbd bc74 043e
000002c0: e042 debd 0be2 93bd f884 5e3b d546 073e
000002d0: c758 243e eda2 053e a063 2d3a 6baa fdbb
000002e0: 6c31 6d3b 7000 2bbc 09c9 02be 234f ec3d
000002f0: df7d 89bb 8d71 293d fc0a 29bc 4f13 cfbd
00000300: 1796 8e3b 3490 4d3d 716e c0bd bd0a 233e
00000310: 9821 d93d c671 2e3c a6c7 4cbd 9519 973b
00000320: 5691 81bd 8e52 aabd add0 8d3e 425d 393e
00000330: 1af8 c83d dff1 ccbd c6f6 d7ba 5672 81bd
00000340: 8ccc 153e f29d e2bd fce3 3ebb 14fb d03b
00000350: 3c4e f13a 8a69 093b 4cf5 58be 99c3 d43c
00000360: 055d 72bd 749e a23c c6bd cfbd c36d a23a
00000370: e0ad 1fbc 8804 d9bc cb7f bd3b 5e3d 653e
00000380: be47 3e3e a72b 2fbe 1f84 bcbd 0ebe 3339
00000390: 5926 623d 8628 91bc 6ac4 b7bb 7075 693e
000003a0: 8bb8 64be 0b4a 793e 0e46 f2ba 9839 33be
000003b0: 881a 443d 13f8 ad3e ef08 3dbd 9415 3bbc
000003c0: f013 ffbc d234 ebba bd15 1b3d d2a4 2e3e
000003d0: 2803 86bc 360f 3a3d 9676 bfbd 3bc1 a6bc
000003e0: dfd4 c73a ca4a da3d eac1 eabb a801 64bd
000003f0: 60b7 72be 90b6 363e 1c51 5b3e e848 25bc

convs.1.lin_l.weight f4 [128, 128]
-0.011059082 0.02086648 -0.010649664 0.01001652 -0.0046762885 0.005816105 -0.05816821 -0.07512336
0.00059914024 -0.0025796262 -0.07058446 0.030614104 -0.06414293 -0.0012877077 -0.032684524 -0.002582763
-0.032986473 0.016884072 0.020044023 0.0005939721 0.00026754677 -0.032171022 -0.008384785 -0.0030279362
-0.11287395 0.016481277 -0.0018410322 -0.07714364 -0.0007557474 0.025550747 0.0025089863 -0.015695833
0.012429327 0.020815322 -0.00037727 -0.013087424 -0.009561314 -0.020381767 -0.03467596 -0.0010029537
-0.012173566 -0.11101082 -0.06977687 -0.023888843 -0.06965162 -0.0014683728 -0.10997388 0.027886868
-0.036341056 -0.00084505224 -0.033891797 -0.052079592 -0.07226623 0.0058428817 -0.08733389 -0.0036296945
-0.016755978 0.038331278 -0.004389078 -0.0040414487 -0.008282075 -0.047449447 0.00038284188 0.017291753
-0.02651205 0.0044543063 0.017721314 0.0016977922 -0.022444306 -0.002858207 0.012537052 -0.0072916867
0.002633447 -0.012156845 -0.014487719 -0.0077547273 -0.015121666 -0.0035496787 -0.0013616616 -0.058479585
-0.004083611 0.011606241 -0.00631504 -0.0007977669 -0.1006359 0.006685527 0.008051391 -0.032481294
-0.0019239689 0.009784027 0.017481472 -0.00029487137 -0.008228975 -0.013808293 -0.005990119 0.0039409935
-0.0016807728 -0.02235288 -0.0042680735 0.0017125951 -0.09969661 -0.0074725444 -0.008436678 0.0012638072
0.0008915924 -0.083237566 -0.0019424387 0.015606878 -0.0580761 -0.076683566 -0.052497648 -0.0053234664
-0.081334986 -0.01770366 -0.0043623024 -0.014414706 -0.0585254 -0.0022800323 -0.00976359 -0.05805411
-0.009208484 0.017239744 -0.038148157 -0.07094013 -0.0145368185 -0.012834499 -0.0030064336 -0.015364436
-3.8651342e-05 -0.00817114 0.0068823625 -0.014182698 0.0017282699 0.0036770042 0.00161857 -0.063914135
0.0016336394 0.0012826481 -0.0106332805 0.016258078 -0.019633144 -0.0041766837 -0.006288929 0.008595726
-0.039218895 0.016718028 -0.04267275 0.0029988165 -9.558658e-05 -0.05171232 0.0059294864 0.0031424512
0.023876328 0.0056919353 0.00047379674 -0.016749637 0.010679649 -0.020439515 0.0028562315 0.0062871184
-0.0022723256 -0.023595596 0.0033619674 0.0030680727 -0.044629324 -0.0009859687 -0.02123974 0.013617992
0.00037168 -0.027554594 -0.00552171 0.0029168564 -0.03626883 0.0024178976 0.011608524 -0.027265687
0.003436933 0.0003233917 -0.0058750045 -0.010227028 0.016372595 -0.0021539717 -0.0077236043 -0.0010775737
0.003075585 -0.02487719 0.0014348493 -0.0034041512 0.0026416876 -0.027578326 0.0006172422 -0.0009020782
0.019310446 -0.003245553 -0.016018678 0.0028398456 0.004678447 0.002942088 0.005598953 0.0019626222
0.0007204376 -0.019097427 0.0060113836 0.0014316578 -0.029096244 0.0061045 -0.0018591123 0.008378229
0.0024776536 0.0077505433 -0.022578605 -0.04850059 -0.011412175 -0.011855691 -0.06531329 0.005202711
0.0071211043 -0.023644427 0.0016487562 0.0026313453 -0.0006313671 -0.045322865 0.0032167316 0.0004977755
0.005006362 0.00022785825 0.00509198 0.0016467425 -0.014680148 0.013054358 -0.008336235 -0.00019068299
0.004026291 -0.035604354 0.00031027125 0.012253882 -0.03742795 0.005640546 -0.02279769 -0.006584686
-0.025838468 0.004689118 -0.004823246 0.008285299 -0.009442756 0.0016835845 -0.0058793873 -0.0057827067
0.010576654 0.0010808642 -0.0010454897 -0.024881968 0.004026587 0.0060569444 -0.0364831 0.0018924363
00000000: 2731 35bc 2ef0 aa3c ee7b 2ebc 541c 243c
00000010: 8d3b 99bb 0695 be3b ca41 6ebd 47da 99bd
00000020: 9f0f 1d3a f20e 29bb 968e 90bd 6eca fa3c
00000030: 5e5d 83bd 4dc8 a8ba 35e0 05bd 9343 29bb
00000040: d31c 07bd 7750 8a3c 5d33 a43c cbb4 1b3a
00000050: 8545 8c39 c3c5 03bd 5660 09bc 5770 46bb
00000060: 752a e7bd be03 873c ca4e f1ba 7cfd 9dbd
00000070: 591d 46ba cd4f d13c ce6d 243b 8c94 80bc
00000080: 60a4 4b3c e584 aa3c 52cc c5b9 a36c 56bc
00000090: 0fa7 1cbc aaf7 a6bc 6108 0ebd 8b75 83ba
000000a0: a373 47bc a459 e3bd 2de7 8ebd 89b2 c3bc
000000b0: 82a5 8ebd 6a76 c0ba fc39 e1bd 0073 e43c
000000c0: 5cda 14bd 7f86 5dba 20d2 0abd 6951 55bd
000000d0: 5100 94bd a575 bf3b 1cdc b2bd 2be0 6dbb
000000e0: d543 89bc 4201 1d3d 41d2 8fbb 216e 84bb
000000f0: 8ab1 07bc 5a5a 42bd 2bb8 c839 6fa7 8d3c
00000100: cc2f d9bc 6ef5 913b 4a2c 913c 7488 de3a
00000110: 1fdd b7bc c250 3bbb 3568 4d3c 1aef eebb
00000120: e995 2c3b 812d 47bc e65d 6dbc 5e1b febb
00000130: ddc0 77bc baa1 68bb c879 b2ba 4a88 6fbd
00000140: d0cf 85bb 1a28 3e3c 65ee cebb 3b21 51ba
00000150: 321a cebd 4412 db3b fbe9 033c 1b0b 05bd
00000160: af2d fcba 2f4d 203c 4e35 8f3c f798 9ab9
00000170: d3d2 06bc 2e3c 62bc c348 c4bb 7323 813b
00000180: 604d dcba 631d b7bc 32db 8bbb 2879 e03a
00000190: bc2d ccbd 3fdc f4bb fe39 0abc 55a6 a53a
000001a0: c1b9 693a 7578 aabd 6d99 feba feb3 7f3c
000001b0: 34e1 6dbd 460c 9dbd c607 57bd 7970 aebb
000001c0: f592 a6bd 4407 91bc a5f1 8ebb a92b 6cbc
000001d0: 54b8 6fbd 986c 15bb 77f7 1fbc 25ca 6dbd
000001e0: 2edf 16bc 5d3a 8d3c 3e41 1cbd 0f49 91bd
000001f0: d62b 6ebc ca47 52bc 9607 45bb 1ebb 7bbc
00000200: 901d 22b8 3fe0 05bc 7185 e13b 8c5e 68bc
00000210: 1d87 e23a e5f9 703b 3226 d43a 6ae5 82bd
00000220: d81f d63a 871e a83a 3637 2ebc a92f 853c
00000230: b0d5 a0bc 90dc 88bb 5c13 cebb 17d5 0c3c
00000240: fea3 20bd 3ff4 883c 9fc9 2ebd cb87 443b
00000250: a875 c8b8 4cd0 53bd 234c c23b 95f1 4d3b
00000260: 4a98 c33c 6a83 ba3b ec67 f839 8936 89bc
00000270: b2f9 2e3c c570 a7bc 9d2f 3b3b 2c04 ce3b
00000280: 4ceb 14bb 8d4b c1bc 7454 5c3b b811 493b
00000290: 3dcd 36bd 9f3b 81ba f7fe adbc 001e 5f3c
000002a0: 0cde c239 2cba e1bc 76ef b4bb bb28 3f3b
000002b0: a08e 14bd 9775 1e3b ae31 3e3c 4a5c dfbc
000002c0: 2b3e 613b e68c a939 1c83 c0bb 448f 27bc
000002d0: d21f 863c a629 0dbb 4a16 fdbb 603d 8dba
000002e0: c18f 493b 40cb cbbc 8e11 bc3a 2e18 5fbb
000002f0: 2a20 2d3b f1eb e1bc 6cce 213a 7179 6cba
00000300: f130 9e3c 58b3 54bb 9a39 83bc b41c 3a3b
00000310: a84d 993b 0cd0 403b 6c77 b73b 569f 003b
00000320: c0db 3c3a 3572 9cbc 24fb c43b 77a6 bb3a
00000330: 3f5b eebc 4208 c83b 75ad f3ba d744 093c
00000340: 2160 223b 45f8 fd3b c4f6 b8bc 8ea8 46bd
00000350: 22fa 3abc 5f3e 42bc f9c2 85bd 817b aa3b
00000360: 2758 e93b f5b1 c1bc 141b d83a a672 2c3b
00000370: 5482 25ba 78a4 39bd cdcf 523b 267d 023a
00000380: 690c a43b 3ced 6e39 a0da a63b 82d7 d73a
00000390: 0185 70bc f2e1 553c b494 08bc 13f2 47b9
000003a0: faee 833b dfd5 11bd e7ab a239 82c4 483c
000003b0: 0d4e 19bd 54d4 b83b 39c2 babc 5ac4 d7bb
000003c0: 32ab d3bc 2ca7 993b 520c 9ebb 10bf 073c
000003d0: cab5 1abc b9ab dc3a e0a7 c0bb dc7c bdbb
000003e0: b449 2d3c c9ab 8d3a d008 89ba 45d5 cbbc
000003f0: 76f1 833b 5579 c63b 4e6f 15bd a00b f83a

convs.1.lin_l.bias f4 [128]
-0.0008621633 -0.00038473392 0.01033264 0.005283621 0.03682654 0.04883818 -0.040357564 -0.0026810223
-0.023798248 0.08112567 -0.057652768 0.0062817167 0.010574147 0.043484565 -0.016907638 -0.02923915
-0.05538561 0.066527486 0.03520213 0.052847996 -0.09446027 -0.003311896 -0.091094024 0.047739904
0.12663545 -0.09400012 -0.009971643 0.0015833268 0.07576753 0.055255868 0.0062524187 -0.047108233
0.09781416 -0.13097225 0.07420021 0.04211029 -0.07986285 -0.06556543 0.038498 -0.043697037
-0.02209206 0.03727138 -0.005953965 -0.03248528 -0.038562726 -0.054996688 0.002889901 0.024717636
-0.012386745 -0.0065000104 0.056133796 -0.039141104 -0.027098568 0.032367643 -0.072945304 0.0041527343
-0.015453704 -0.07559196 0.022847233 0.07972907 -0.014633466 -0.01449747 -0.08858005 -0.022799501
-0.033303875 0.03402045 0.051190026 -0.043748025 -0.023975195 -0.03653225 0.05572818 0.047474634
-0.005297943 0.044225473 0.03324887 0.01629096 -0.10841485 -0.110429324 -0.075388275 -0.02890858
-0.012204761 -0.03446453 0.006089624 0.053338762 -0.0077239387 -0.07091067 0.006764394 0.079900295
0.00013360765 0.019427445 0.055093493 0.060925957 0.12961966 -0.08899953 0.034197208 -0.04302163
-0.08259558 0.025369467 -0.03938599 -0.018031215 -0.03445648 0.031421836 0.00014917829 -0.014770667
0.028494125 -0.033058822 -0.04498681 -0.033434525 -0.037160154 -0.0002528315 0.047115263 0.067900315
0.057541054 -0.030642739 0.05002584 -0.051407464 -0.023515591 -0.027584365 -0.09561407 -0.054133985
0.081721686 0.054802045 -0.051349793 -0.039277982 0.0046662856 0.07215902 0.002897027 -0.04471914
00000000: cd02 62ba 1db6 c9b9 3c4a 293c 3a22 ad3b
00000010: 6dd7 163d 8b0a 483d f94d 25bd 17b4 2fbb
00000020: 8bf4 c2bc 3725 a63d 4f25 6cbd dcd6 cd3b
00000030: 303f 2d3c df1c 323d e381 8abc f186 efbc
00000040: 05dc 62bd 903f 883d 1c30 103d 2477 583d
00000050: 6374 c1bd 650c 59bb 818f babd eb8a 433d
00000060: b9ac 013e 2383 c0bd 1a60 23bc a287 cf3a
00000070: 022c 9b3d fa53 623d 17e1 cc3b 90f4 40bd
00000080: ca52 c83d 971d 06be 48f6 973d d77b 2c3d
00000090: 228f a3bd 2b47 86bd 14b0 1d3d aafb 32bd
000000a0: 68fa b4bc e0a9 183d 7a19 c3bb 490f 05bd
000000b0: f3f3 1dbd 3544 61bd 7e64 3d3b a47c ca3c
000000c0: c6f1 4abc 0afe d4bb 8dec 653d 6c52 20bd
000000d0: d1fd ddbc ef93 043d 5964 95bd a913 883b
000000e0: 8831 7dbc f5cf 9abd 1f2a bb3c ff48 a33d
000000f0: 34c1 6fbc cc86 6dbc 7569 b5bd 05c6 babc
00000100: a569 08bd 0759 0b3d a2ac 513d 2131 33bd
00000110: a167 c4bc d7a2 15bd 3b43 643d c374 423d
00000120: 5e9a adbb c525 353d f82f 083d 9f74 853c
00000130: 9b08 debd c528 e2bd 2b65 9abd b0d1 ecbc
00000140: 7af6 47bc ae2a 0dbd 788b c73b bf79 5a3d
00000150: 1819 fdbb 9d39 91bd daa7 dd3b c4a2 a33d
00000160: 0819 0c39 4e26 9f3c b7a9 613d 7f8d 793d
00000170: 04bb 043e 6345 b6bd 5f12 0c3d 7337 30bd
00000180: df27 a9bd a1d3 cf3c 3453 21bd 33b6 93bc
00000190: 3d22 0dbd 2fb4 003d be6c 1c39 ab00 72bc
000001a0: 836c e93c b068 07bd 1744 38bd a4f2 08bd
000001b0: 3f35 18bd 788e 84b9 effb 403d 520f 8b3d
000001c0: 2bb0 6b3d 7b06 fbbc e5e7 4c3d a290 52bd
000001d0: c5a3 c0bc 9bf8 e1bc 4fd1 c3bd 99bb 5dbd
000001e0: b35d a73d 1c78 603d 2954 52bd f3e1 20bd
000001f0: a4e7 983b 1cc8 933d 0cdc 3d3b 6b2b 37bd

convs.1.lin_r.weight f4 [128, 128]
0.059576783 -0.06378585 0.055603407 -0.03947907 0.032463137 0.0014369101 -0.05351659 -0.006030756
-0.0028813353 0.0046474882 -0.09315128 -0.11054057 -0.017428368 -0.04696134 -0.07109224 -0.021669857
-0.012555166 -0.054406192 -0.058506496 -0.005725814 -0.0016769777 -0.051192872 -0.026966253 0.018067205
-0.04469607 -0.022336006 -0.0017978909 -0.04658251 0.070633456 -0.013122563 -0.019821648 0.010954943
-0.010805954 -0.0749518 -0.01079587 -0.037270542 0.028257042 -0.028334366 -0.0068896986 0.03655046
-0.0069374368 -0.022767184 0.011250127 -0.0026163564 -0.036411013 0.013632427 0.007933374 -0.0006334886
-0.0027090954 -0.0032253207 0.045347743 -0.02193305 -0.060031123 -0.004977342 -0.06792626 -0.005209036
0.026796613 0.028254522 -0.025473488 -0.03729198 0.005172195 -0.074549 0.02983961 0.0034808472
0.046949048 -0.04692522 -0.00349596 -3.4512166e-05 -0.0020585365 0.028175313 -0.029304055 -0.032847073
0.0045216233 -0.026492435 0.009943492 -0.007362952 0.025760533 0.047701333 0.000649058 -0.026097184
-0.042487398 0.03141585 -0.045357693 -0.025136042 -0.107042134 -0.0017948546 -0.08567951 -0.011353555
-0.0006146311 -0.08493386 0.0036696508 -0.036089893 -0.020507077 0.00891651 0.0062246444 -0.017623398
0.043931846 -0.04978265 0.046841554 0.01677812 -0.08792903 -0.08416234 -0.017690731 0.00909147
0.013071594 -0.078585565 0.022431487 0.018648578 -0.063656054 -0.051822588 -0.036372557 -0.07614362
-0.08553123 0.008649693 -0.043361038 -0.0022817552 -0.027135119 -0.002396195 -0.018133465 -0.05520165
-0.06906781 0.02450733 -0.07298161 -0.014804143 -0.032142647 -0.028938865 -0.09017457 0.06458218
-0.032361332 -0.007611061 -0.053684466 0.011896759 -0.038589075 -0.0024353138 0.0053521297 -0.048108775
0.0032873196 -0.008487374 0.0034731925 0.021946771 0.016832668 0.00720265 0.034818295 -0.0029117868
-0.045477524 -0.040903404 -0.05330162 0.009164828 0.0108235385 0.012424461 -0.08371821 -0.058339268
-0.017279197 0.010033616 0.0029841252 0.017166927 -0.08036887 0.031653803 0.013124273 -0.08184945
0.0086844945 -0.05612146 0.007584687 0.015984539 -0.036277227 0.0021144866 0.014751026 -0.007780293
0.0008579973 -0.07955702 -0.054881368 0.015560389 -0.03383585 -0.08235743 -0.0066389297 0.006110177
0.00084333826 0.002728353 -0.05147342 0.008839338 -0.035682563 0.008855673 0.0040835757 0.00798893
-0.038803186 0.001126824 -0.0063328617 0.010484988 -0.022285342 0.021066844 -0.0228446 -0.07181574
-0.09554207 -0.04773865 -0.001149975 -0.0036607268 -0.060171947 -0.03435327 0.0029797798 -0.026295232
-0.00035015005 -0.0701705 -0.0966632 0.005205661 -0.044364803 -0.025274303 0.005090351 0.05220764
-0.025463738 -0.0009210685 -0.058612462 0.0072813644 0.027532678 0.0031213302 -0.027973967 0.0093791885
-0.06839052 -0.013527468 -0.04634081 0.0053528473 0.003956507 0.019974519 -0.020360362 -0.0075869085
-0.022983514 -0.039555177 -0.075007424 0.0028400568 0.024730833 -0.019446379 0.0017460727 -0.03078077
-0.07398358 -0.010735802 -0.02188725 -0.053363312 -0.006223993 0.007828996 -0.032104786 -0.045704488
0.022790195 0.023528343 -0.024933271 0.0001511859 0.005163295 -0.09326181 0.0016697954 -0.001541344
-0.029979017 0.016199669 0.022033015 -0.045322746 0.006902655 0.0008470078 -0.022534374 -0.01090823
00000000: c906 743d 28a2 82bd 66c0 633d ceb4 21bd
00000010: 11f8 043d b456 bc3a 3634 5bbd a69d c5bb
00000020: c9d4 3cbb f549 983b 19c6 bebd 1863 e2bd
00000030: f0c5 8ebc 895a 40bd cf98 91bd fc84 b1bc
00000040: 2fb4 4dbc 07d9 5ebd 82a4 6fbd 9c9f bbbb
00000050: 09ce dbba 9eaf 51bd 55e8 dcbc ad01 943c
00000060: 3a13 37bd 00fa b6bc 35a7 ebba 4dcd 3ebd
00000070: 46a8 903d 0500 57bc 0261 a2bc 5c7c 333c
00000080: 750b 31bc 5480 99bd 29e1 30bc ffa8 18bd
00000090: 507b e73c 791d e8bc fbc2 e1bb efb5 153d
000000a0: 7053 e3bb 3f82 babc 7452 383c 2d77 2bbb
000000b0: b723 15bd 8b5a 5f3c fbfa 013c b310 26ba
000000c0: 148b 31bb e75f 53bb 8ebe 393d f1ac b3bc
000000d0: 32e3 75bd f918 a3bb ec1c 8bbd 90b0 aabb
000000e0: 9284 db3c 0776 e73c c7ad d0bc 7abf 18bd
000000f0: 847b a93b 25ad 98bd 3372 f43c ed1e 643b
00000100: a54d 403d a934 40bd 7a1c 65bb 28c1 10b8
00000110: 83e8 06bb eacf e63c 0f0f f0bc a78a 06bd
00000120: 202a 943b aa06 d9bc 07ea 223c eb44 f1bb
00000130: c107 d33c 7962 433d 8c25 2a3a c3c9 d5bc
00000140: 4407 2ebd e8ad 003d fdc8 39bd 1aea cdbc
00000150: e838 dbbd 5441 ebba bd78 afbd 4304 3abc
00000160: 321f 21ba cef1 adbd 867e 703b ffd2 13bd
00000170: 75fe a7bc 8e16 123c 1af8 cb3b f25e 90bc
00000180: e1f1 333d e4e8 4bbd eedc 3f3d 4572 893c
00000190: 2314 b4bd 4e5d acbd 27ec 90bc 64f4 143c
000001a0: 3d2a 563c 78f1 a0bd 3dc2 b73c e7c4 983c
000001b0: 1b5e 82bd ec43 54bd 64fb 14bd 30f1 9bbd
000001c0: ff2a afbd 71b7 0d3c 589b 31bd 8089 15bb
000001d0: 784a debc 7b09 1dbb a28c 94bc 201b 62bd
000001e0: 6d73 8dbd 99c3 c83c 6277 95bd 148d 72bc
000001f0: 02a8 03bd 3311 edbc 72ad b8bd a943 843d
00000200: 518d 04bd 3566 f9bb 3ee4 5bbd a0ea 423c
00000210: 940f 1ebd c999 1fbb eb60 af3b b50d 45bd
00000220: 1270 573b a00e 0bbc 809e 633b b7c9 b33c
00000230: aae4 893c 3504 ec3b a19d 0e3d add3 3ebb
00000240: a446 3abd 548a 27bd cd52 5abd 1328 163c
00000250: 3655 313c f78f 4b3c 7474 abbd 28f5 6ebd
00000260: 1a8d 8dbc 0964 243c 5091 433b a8a1 8c3c
00000270: 6f98 a4bd 6ba7 013d 3107 573c afa0 a7bd
00000280: 6949 0e3c 9edf 65bd f788 f83b 02f2 823c
00000290: 6e97 14bd 3393 0a3b 4aae 713c d4f1 febb
000002a0: 39eb 603a caee a2bd 49cb 60bd 00f1 7e3c
000002b0: 7697 0abd 03ab a8bd 618b d9bb e137 c83b
000002c0: 7913 5d3a 2bce 323b cbd5 52bd dfd2 103c
000002d0: e127 12bd 6217 113c 84cf 853b 00e4 023c
000002e0: 17f0 1ebd f0b1 933a e583 cfbb 3ac9 2b3c
000002f0: c08f b6bc 6094 ac3c 9924 bbbc 2114 93bd
00000300: 90ab c3bd 9a89 43bd c2ba 96ba cee8 6fbb
00000310: dc76 76bd 04b6 0cbd 6948 433b 1969 d7bc
00000320: 5894 b7b9 8db5 8fbd 5bf7 c5bd 4094 aa3b
00000330: deb7 35bd 0e0c cfbc f6cc a63b aed7 553d
00000340: 5499 d0bc dc73 71ba 9f13 70bd 8398 ee3b
00000350: 368c e13c 3b8f 4c3b a929 e5bc 2bab 193c
00000360: 5410 8cbd 50a2 5dbc dccf 3dbd f066 af3b
00000370: 96a5 813b 9aa1 a33c c6ca a6bc 9a9b f8bb
00000380: ec47 bcbc 9c04 22bd 7e9d 99bd 3f20 3a3b
00000390: 5198 ca3c 034e 9fbc 7adc e43a f427 fcbc
000003a0: b484 97bd 38e5 2fbc e44c b3bc 7d93 5abd
000003b0: a3f2 cbbb 3045 003c 4f80 03bd a134 3bbd
000003c0: 81b2 ba3c 83be c03c dc40 ccbc a887 1e39
000003d0: dc30 a93b 0c00 bfbd 09dd da3a ec06 caba
000003e0: 8e96 f5bc 2bb5 843c 957e b43c 58a4 39bd
000003f0: ab2f e23b bb09 5e3a 029a b8bc 6fb8 32bc

regressor.0.weight f4 [64, 128]
-0.07991177 0.0070790355 0.024822973 -0.055509247 -0.06421417 0.0029925618 0.024334561 0.0069535743
-0.014774495 0.089859605 0.076164 -0.03454778 0.039594106 -0.0025840553 0.030424425 -0.0023672858
0.06459937 -0.016245436 0.0064331163 -0.07252946 -0.03129188 -0.08467218 0.050388455 0.03582632
-0.07336072 -0.04749846 0.07083343 0.005679307 -0.085233286 0.08056387 -0.11351628 0.07465568
-0.0058938917 0.09163284 0.0392778 0.08121513 -0.03244608 0.07796753 -0.12427269 0.115509294
-0.10863957 -0.032048885 0.022864446 0.015133431 -0.0961456 0.0061368914 0.033832658 0.057727285
0.043339238 -0.047698796 -0.007375727 0.07059124 -0.09852104 -0.011841651 -0.045039266 0.0026044
0.057265766 -0.045719337 0.025887828 -0.028165858 0.02065862 0.0059627066 -0.006879524 -0.022556346
0.054983698 0.039667234 -0.030021448 -0.03258263 0.01419472 0.12968269 -0.054804154 -0.09026312
-0.08588448 0.11223232 -0.008385492 0.12308819 -0.022315534 -0.087410346 -0.08308018 0.048293915
-0.06879963 0.04675878 0.008078196 -0.03334091 0.13187328 0.06004126 -0.09701234 -0.024937665
0.0028724484 -0.011298225 -0.0814118 0.12256921 -0.062602974 0.037026826 -0.005176005 0.0003111716
0.03264476 0.054241713 0.03200398 0.022146305 0.046220016 0.074669056 0.0007767387 -0.026848748
-0.09704558 0.046228576 -0.0530546 -0.00410631 0.086129844 0.025152527 -0.046531834 -0.059204556
0.012745097 -0.041820418 -0.02265156 -0.06358124 0.024960944 -0.00044655366 0.0230514 0.049220387
0.0049956664 0.07114777 0.048084274 0.103332706 -0.11469601 -0.005394999 0.013215322 -0.048425358
-0.027239133 0.095061235 0.066010706 -0.08098393 -0.07353606 -0.10056071 0.09950969 -0.03168519
-0.050429262 -0.014830217 0.027979476 -0.009713554 0.12813433 0.007761182 0.0587168 -0.013603882
0.06778482 -0.092453144 0.089191675 -0.10685581 0.08962406 -0.014417088 0.09441011 0.032321963
-0.014179228 0.017503705 0.04103847 0.051534016 -0.05771832 -0.036484763 0.02942257 0.06194448
0.0056082024 -0.012771382 -0.0129164895 -0.0030661635 0.030093536 0.0016657166 -0.03609633 0.13288762
-0.07170752 -0.043195095 0.03264584 0.0119489385 0.006781852 -0.023100836 -0.103337616 -0.04205126
0.054053966 0.009506685 -0.11257028 -0.07321631 -0.009336574 -0.07427967 -0.08458089 -0.0733404
0.12391378 -0.022551294 0.10498565 -0.019319568 0.04081046 0.061571468 0.029322723 -0.11128239
0.016896777 0.01563779 -0.11014184 -0.06492825 0.0047153123 0.08309403 -0.100649856 -0.07832945
-0.0558659 -0.042524576 0.043104965 0.00031069014 -0.005006074 -0.080145225 -0.08069722 0.093742356
-0.0052702003 0.019847713 -0.02946829 -0.00024354827 0.1086128 0.052793 -0.12001613 0.10573402
0.03637405 -0.0047276937 0.015190042 -0.0064575663 -0.07132472 0.0025479805 -0.13689364 0.021101458
-0.021827985 0.1139065 0.04350533 0.022515409 0.061917268 0.0070267697 -0.007678276 0.12303058
-0.0021581235 0.0022852763 -0.1270225 0.009530025 0.122959696 -0.09383004 -0.0936407 -0.04638124
-0.12375993 0.092457704 0.013517126 -0.03765442 -0.03608889 -0.05254393 -0.026323732 0.016646832
-0.04264408 0.058268297 0.1346737 0.113626786 -0.04865784 0.023007026 -0.08285415 -0.095440775
00000000: c8a8 a3bd 41f7 e73b 8c59 cb3c aa5d 63bd
00000010: b882 83bd db1e 443b 4659 c73c cfda e33b
00000020: b910 72bc 5008 b83d dffb 9b3d f981 0dbd
00000030: 6e2d 223d 4159 29bb a53c f93c 7724 1bbb
00000040: ad4c 843d 2615 85bc e4cc d23b 538a 94bd
00000050: ea2b 00bd 9c68 adbd 2064 4e3d 9fbe 123d
00000060: 253e 96bd bf8d 42bd 1e11 913d 7b19 ba3b
00000070: ca8e aebd acfe a43d 397b e8bd 14e5 983d
00000080: 8c21 c1bb 00aa bb3d c2e1 203d 1e54 a63d
00000090: 2ee6 04bd 71ad 9f3d ae82 febd 2390 ec3d
000000a0: 6c7e debd b145 03bd 384e bb3c 36f2 773c
000000b0: fce7 c4bd fa17 c93b 1d94 0a3d 7273 6c3d
000000c0: 7c84 313d d05f 43bd 15b0 f1bb 2492 903d
000000d0: 66c5 c9bd 7c03 42bc 187b 38bd 95ae 2a3b
000000e0: 828f 6a3d 3344 3bbd b612 d43c 16bc e6bc
000000f0: 443c a93c cf62 c33b a16d e1bb 16c8 b8bc
00000100: 9636 613d 1c7a 223d 8aef f5bc 5d75 05bd
00000110: f990 683c 8acb 043e 527a 60bd dfdb b8bd
00000120: 34e4 afbd 0fda e53d 4d63 09bc a915 fc3d
00000130: 11cf b6bc 3204 b3bd f125 aabd d7cf 453d
00000140: d2e6 8cbd 2286 3f3d 695a 043c 7a90 08bd
00000150: ca09 073e d3ed 753d 68ae c6bd 134a ccbc
00000160: b03f 3c3b 311c 39bc 3bbb a6bd 9105 fb3d
00000170: fd35 80bd 71a9 173d 7a9b a9bb bf24 a339
00000180: 83b6 053d 8f2c 5e3d 9b16 033d 2b6c b53c
00000190: 3351 3d3d 17ec 983d 0d9e 4b3a e8f1 dbbc
000001a0: d5bf c6bd 2d5a 3d3d c84f 59bd 3a8e 86bb
000001b0: d864 b03d ac0c ce3c 2a98 3ebd 7a80 72bd
000001c0: d0d0 503c e34b 2bbd c48f b9bc e236 82bd
000001d0: e57a cc3c 6b1f eab9 4ad6 bc3c 519b 493d
000001e0: b0b2 a33b ecb5 913d 04f4 443d 19a0 d33d
000001f0: bee5 eabd 88c8 b0bb 1485 583c ab59 46bd
00000200: 9a24 dfbc 77af c23d 9f30 873d e7da a5bd
00000210: 139a 96bd c6f2 cdbd bdcb cb3d 54c8 01bd
00000220: ea8e 4ebd 70fa 72bc 3735 e53c 9925 1fbc
00000230: a535 033e 8351 fe3b 0781 703d d1e2 5ebc
00000240: c5d2 8a3d 1358 bdbd 20aa b63d 38d7 dabd
00000250: d28c b73d a635 6cbc 165a c13d 0964 043d
00000260: fe4f 68bc ee63 8f3c f417 283d 5515 533d
00000270: 0c6a 6cbd 0c71 15bd 9a07 f13c 7fb9 7d3d
00000280: 03c5 b73b 0f3f 51bc af9f 53bc b0f1 48bb
00000290: b886 f63c 2d54 da3a bfd9 13bd b113 083e
000002a0: 64db 92bd 57ed 30bd a5b7 053d 7bc5 433c
000002b0: 4c3a de3b f73d bdbc aca2 d3bd f13d 2cbd
000002c0: b167 5d3d edc1 1b3c 3f8b e6bd 6ff2 95bd
000002d0: 6ef8 18bc f11f 98bd bf38 adbd 7e33 96bd
000002e0: 82c6 fd3d 7ebd b8bc b702 d73d 1244 9ebc
000002f0: de28 273d 5d32 7c3d 3536 f03c 06e8 e3bd
00000300: 1c6b 8a3c d31a 803c 0c92 e1bd 1af9 84bd
00000310: e882 9a3b 342d aa3d 8321 cebd 316b a0bd
00000320: a4d3 64bd 402e 2ebd d58e 303d 20e4 a239
00000330: fe09 a4bb 2e23 a4bd 9644 a5bd fefb bf3d
00000340: a5b1 acbb ac97 a23c 7c67 f1bc fe60 7fb9
00000350: 6370 de3d 793d 583d 04cb f5bd 148b d83d
00000360: f5fc 143d c5ea 9abb a7df 783c fe99 d3bb
00000370: b212 92bd 05fc 263b d92d 0cbe f7dc ac3c
00000380: 9ad0 b2bc d047 e93d a532 323d 3c72 b83c
00000390: f69c 7d3d d140 e63b 0c9a fbbb 75f7 fb3d
000003a0: 4e6f 0dbb 93c4 153b 3012 02be d223 1c3c
000003b0: 4bd2 fb3d f729 c0bd b2c6 bfbd 41fa 3dbd
000003c0: d975 fdbd 775a bd3d f076 5d3c 853b 1abd
000003d0: f2d1 13bd 4e38 57bd dea4 d7bc f05e 883c
000003e0: 8fab 2ebd bdaa 6e3d e7e7 093e 29b5 e83d
000003f0: 714d 47bd 3b79 bc3c 70af a9bd 7476 c3bd

regressor.0.bias f4 [64]
-0.08107454 0.017730845 -0.04133977 -0.031780776 -0.0030110728 0.0031625463 -0.11106583 -0.1385935
-0.08283045 -0.10358954 -0.0041292594 -0.05734185 0.114734605 -0.026240379 -0.07126966 -0.003163322
-0.03568742 0.0016364713 0.019153493 -0.06784278 0.01865435 -0.08730362 -0.052663658 0.11523465
-0.06418902 0.004125693 -0.11041711 -0.10090646 -0.015470812 -0.061151326 -0.03369716 -0.094363004
-0.0060200905 -0.12011632 -0.09831807 -0.05275317 -0.087901585 0.029063474 -0.09939512 -0.052091785
-0.05370366 0.012740615 0.033333983 0.0056291227 -0.118647546 0.007349104 0.037945457 -0.09808086
-0.09708278 -0.04983753 -0.045791768 -0.049761534 0.04585433 -0.027386367 0.020144423 0.16291912
0.063422464 -0.06912883 0.023693904 -0.0059891827 0.002308887 0.03850545 0.023490462 0.023491891
00000000: 690a a6bd 4740 913c e453 29bd 8f2c 02bd
00000010: 6b55 45bb b942 4f3b 7b76 e3bd 74eb 0dbe
00000020: 03a3 a9bd c126 d4bd bd4e 87bb 4adf 6abd
00000030: faf9 ea3d 10f6 d6bc d4f5 91bd bd4f 4fbb
00000040: f92c 12bd dd7e d63a c9e7 9c3c 28f1 8abd
00000050: 02d1 983c 3ecc b2bd d9b5 57bd 2500 ec3d
00000060: 8875 83bd d230 873b 5e22 e2bd 0ca8 cebd
00000070: 4a79 7dbc d079 7abd 0906 0abd 6441 c1bd
00000080: 2e44 c5bb 8cff f5bd fc5a c9bd b513 58bd
00000090: bf05 b4bd 8616 ee3c ab8f cbbd 325e 55bd
000000a0: 5ef8 5bbd 03be 503c 3789 083d 8174 b83b
000000b0: 7cfd f2bd c1d0 f03b b26c 1b3d 9ede c8bd
000000c0: 56d3 c6bd 7022 4cbd 2690 3bbd c0d2 4bbd
000000d0: c0d1 3b3d 6059 e0bc eb05 a53c 45d4 263e
000000e0: a3e3 813d 6b93 8dbd b819 c23c e840 c4bb
000000f0: b250 173b e4b7 1d3d 126f c03c 1172 c03c

regressor.3.weight f4 [32, 64]
-0.04232036 -0.04944534 -0.03760401 0.058115464 0.0028612714 -0.035786476 -0.05574774 0.025897807
-0.013967234 -0.023099989 -0.029175906 -0.045444544 0.03939789 0.0006927013 -0.02245307 -0.004185265
0.00041237377 -0.0006376313 0.002164742 -0.036609046 0.013313923 -0.0013037684 0.0059023527 0.16819485
-0.00012584167 -0.022450307 -0.0428424 -0.054070354 -0.0009935154 0.047828797 0.02264195 -0.017915271
-0.070460655 0.032010067 -0.0005789047 0.073941395 -0.079593055 0.012766222 0.0075012497 0.00010169725
-0.00016975624 0.043794055 -0.08638239 -1.7110433e-06 -0.0084772585 -0.030829716 0.02803003 -0.07448815
-0.03139156 0.0025343779 0.04172458 0.051381793 -0.014089225 -0.0016545589 -0.036588572 0.0881794
0.03844373 0.014447398 0.050415438 0.020960463 0.0020061976 0.042737667 0.07112101 0.075167604
0.10600997 0.07150709 0.04003261 -0.08117766 -0.07302921 0.0107440585 0.070284374 0.087100744
0.0067041875 -0.0050182496 -0.050970554 0.029949713 -0.008087177 -0.04843626 0.078472994 0.04806389
-0.020118345 -0.11282658 0.09294597 -0.056690093 -0.018637806 -0.090418115 -0.010146818 -0.12051494
0.0011712846 0.12309775 0.10047669 0.01866754 -0.018518483 0.07115321 -0.09201544 0.010895389
-0.034838326 0.09896192 0.102071054 0.03800646 0.083929904 0.0039240364 0.005486074 0.021289632
-0.056442928 0.11111502 0.05379329 0.033831116 -0.021659672 0.15476629 0.02121859 -0.002311422
-0.040208768 -0.0017913963 -0.07557866 -0.03529844 -0.030935079 -0.069593675 -0.0058783125 0.02297738
-0.12693946 0.0033959735 -0.04051731 -0.025654482 0.012369582 -0.070452265 -0.050010122 -0.08105704
-0.019082583 0.035711903 0.10365753 0.03325363 -0.042552058 0.09342382 0.021832936 -0.10259683
0.0023270696 -0.025991583 0.043021254 0.013297538 0.047363415 0.0659139 -0.019759357 0.02162246
-0.05541663 0.00070042384 -0.085535355 -0.06526424 0.013894493 -0.019069817 0.024139103 -0.05789454
-0.020075273 0.014157342 -0.026971912 0.024335777 -0.00959824 0.13221183 -0.07747128 0.071287744
-0.029457983 0.014406742 0.03779888 0.008514335 0.04082567 -0.109109625 0.08216989 -0.033429503
-0.013073696 -0.0039309524 0.014388572 -0.00047271102 -0.008518236 -0.068531364 -0.041045655 0.077777244
-0.0022040012 -0.010694587 -0.19063732 0.0048304927 0.033737097 -0.02046447 0.002347833 -0.18728825
-0.054064162 -0.0014368591 -0.015430499 -0.05839641 -0.012252086 -0.0016177876 0.017935574 0.015341926
-0.045026083 0.009792541 0.03577784 -0.0692877 -0.06236641 0.022996847 0.11922199 0.06153681
-0.0024496678 -0.0006870923 0.014308385 -0.045884788 -0.06397924 -0.0096395705 -0.044834886 -0.030568631
-0.025089972 0.00049081014 0.0065140147 -0.030137246 -0.00393676 0.031479936 -0.074499324 0.004221286
0.0016870616 -0.034244288 -6.0000057e-06 0.055274107 -0.041060198 -0.09395472 0.0024752019 0.07834659
0.024506148 0.06302232 -0.027732534 -0.04191818 -0.0066795074 0.0043203905 -0.053444423 -0.05259183
-0.038918156 -0.07846033 -0.027659956 -0.03896408 -0.00010132913 -0.0053119 0.0651554 -0.011096741
-0.039821353 -0.0031592632 -0.03559798 0.06760835 0.04421112 -0.008570415 -0.0017551272 -0.04066431
-0.00316798 0.00073630514 -0.13379681 -0.020929193 0.0022429402 -0.045900162 -0.030382238 -0.010210791
00000000: 1d58 2dbd 3287 4abd aa06 1abd 7b0a 6e3d
00000010: 2b84 3b3b d794 12bd be57 64bd a327 d43c
00000020: d3d6 64bc 303c bdbc 4f02 efbc 0f24 3abd
00000030: af5f 213d 6696 353a 80ef b7bc 8c24 89bb
00000040: df33 d839 b626 27ba 58de 0d3b 5ef3 15bd
00000050: a422 5a3c 35e3 aaba 8668 c13b 453b 2c3e
00000060: 5ef4 03b9 b5e9 b7bc 837b 2fbd e078 5dbd
00000070: d838 82ba 21e8 433d 9c7b b93c 0cc3 92bc
00000080: ad4d 90bd fd1c 033d a3c1 17ba 966e 973d
00000090: af01 a3bd 6a29 513c 0bcd f53b 4c46 d538
000000a0: 9800 32b9 6561 333d 40e9 b0bd 00a7 e5b5
000000b0: 33e4 0abc 9a8e fcbc 3c9f e53c 3e8d 98bd
000000c0: 7094 00bd ce17 263b 65e7 2a3d b775 523d
000000d0: 7ed6 66bc c9dd d8ba e6dd 15bd 6797 b43d
000000e0: 2c77 1d3d c7b4 6c3c 6b80 4e3d 47b5 ab3c
000000f0: 697a 033b b10d 2f3d e4a7 913d 79f1 993d
00000100: c11b d93d 4f72 923d 3cf9 233d 7940 a6bd
00000110: 5790 95bd d907 303c 41f1 8f3d e061 b23d
00000120: cdae db3b 2170 a4bb 80c6 50bd 1a59 f53c
00000130: 1480 04bc 1a65 46bd 73b6 a03d a4de 443d
00000140: 3acf a4bc 9f11 e7bd 755a be3d df33 68bd
00000150: 50ae 98bc 222d b9bd d73e 26bc 89d0 f6bd
00000160: ca85 993a ac1a fc3d b9c6 cd3d abec 983c
00000170: 13b4 97bc c6b8 913d 9772 bcbd 9382 323c
00000180: a2b2 0ebd 8cac ca3d a10a d13d a9ac 1b3d
00000190: 71e3 ab3d 3495 803b 86c4 b33b 9867 ae3c
000001a0: b330 67bd 4690 e33d 5a56 5c3d 7f92 0a3d
000001b0: a06f b1bc 0e7b 1e3e 9cd2 ad3c 3a7b 17bb
000001c0: f3b1 24bd 49cd eaba fcc8 9abd 1995 10bd
000001d0: 906b fdbc 2187 8ebd dc9e c0bb 0f3b bc3c
000001e0: 6bfc 01be fb8e 5e3b 7bf5 25bd 5929 d2bc
000001f0: caa9 4a3c 4749 90bd 6ad7 4cbd 3c01 a6bd
00000200: 1453 9cbc a546 123d 664a d43d f534 083d
00000210: 114b 2ebd fd54 bf3d fcda b23c 491e d2bd
00000220: c081 183b 4dec d4bc 0e37 303d ebdd 593c
00000230: 2400 423d defd 863d 60de a1bc 9621 b13c
00000240: 8cfc 62bd a69c 373a 292d afbd 42a9 85bd
00000250: baa5 633c 4e38 9cbc 5ebf c53c d322 6dbd
00000260: e674 a4bc 32f4 673c 33f4 dcbc d35b c73c
00000270: f041 1dbc 8a62 073e 43a9 9ebd 4fff 913d
00000280: de51 f1bc 410a 6c3c 00d3 1a3d b67f 0b3c
00000290: d138 273d de74 dfbd b048 a83d 60ed 08bd
000002a0: 0e33 56bc 38cf 80bb 0cbe 6b3c 33d6 f7b9
000002b0: 1290 0bbc 2c5a 8cbd 7d1f 28bd ad49 9f3d
000002c0: 0171 10bb 5938 2fbc 6e36 43be 1c49 9e3b
000002d0: e92f 0a3d 1ba5 a7bc 1ade 193b 7ec8 3fbe
000002e0: 6272 5dbd fe54 bcba 34d0 7cbc 1331 6fbd
000002f0: f9bc 48bc f20b d4ba a0ed 923c b45c 7b3c
00000300: 456d 38bd e570 203c c98b 123d b6e6 8dbd
00000310: ec73 7fbd e263 bc3c a92a f43d 060e 7c3d
00000320: 9b8a 20bb fc1d 34ba b76d 6a3c b0f1 3bbd
00000330: 8c07 83bd 4aef 1dbc c9a4 37bd 116b fabc
00000340: 7c89 cdbc b6a9 003a 8473 d53b 63e2 f6bc
00000350: f0ff 80bb 1bf1 003d 1a93 98bd b752 8a3b
00000360: 6520 dd3a bd43 0cbd a853 c9b6 1a67 623d
00000370: bd2e 28bd 556b c0bd ff36 223b 2d74 a03d
00000380: 1ec1 c83c d911 813d 572f e3bc 66b2 2bbd
00000390: c5df dabb 1092 8d3b 8ae8 5abd 886a 57bd
000003a0: a568 1fbd cfaf a0bd 2297 e2bc cd98 1fbd
000003b0: aa80 d4b8 720f aebb 3270 853d 1bcf 35bc
000003c0: b71b 23bd a40b 4fbb 30cf 11bd 3f76 8a3d
000003d0: b816 353d ed6a 0cbc 4c0c e6ba 9f8f 26bd
000003e0: e29d 4fbb 9a04 413a 0802 09be b373 abbc
000003f0: 4bfe 123b cf01 3cbd 2ce4 f8bc 294b 27bc

regressor.3.bias f4 [32]
0.11129616 0.0019085018 -0.16649093 -0.11018884 -0.14881271 -0.02354888 -0.10630054 -0.15248153
-0.057102337 0.082241416 -0.042958375 0.014544677 0.099591345 -0.07444425 0.12609601 -0.0451841
0.05958221 0.0070697367 -0.092713565 0.05513593 0.05081271 -0.10313043 -0.14171045 -0.08043921
0.014588905 0.0053623626 -0.12970412 -0.004267736 0.02112126 -0.009929417 -0.055462852 0.0222785
00000000: 3eef e33d b226 fa3a 997c 2abe b0aa e1bd
00000010: 5c62 18be 95e9 c0bc 19b4 d9bd 1e24 1cbe
00000020: 24e4 69bd 306e a83d 1ff5 2fbd cc4c 6e3c
00000030: 8cf6 cb3d 3a76 98bd 501f 013e f612 39bd
00000040: 7a0c 743d 40a9 e73b 9ce0 bdbd 37d6 613d
00000050: fd20 503d 0c36 d3bd 8b1c 11be 50bd a4bd
00000060: 4d06 6f3c c2b6 af3b 28d1 04be 5dd8 8bbb
00000070: 7e06 ad3c feae 22bc 042d 63bd 6781 b63c

regressor.6.weight f4 [1, 32]
0.009950246 0.009085756 -0.04016471 -0.10069176 -0.033152055 0.059332967 -0.047441423 0.08639075
0.025551056 0.055759553 -0.03709478 -0.0047434834 0.03743806 0.014301101 0.054521617 0.07632511
0.034627087 -0.05646601 0.020136213 0.038449876 0.12047693 -0.09507828 0.0029207158 0.12371759
-0.07907449 0.033369582 0.10320497 0.06470116 0.07673835 0.06426369 -0.04848655 -0.1060463
00000000: 5b06 233c 6cdc 143c c083 24bd 7b37 cebd
00000010: 73ca 07bd 2007 733d f051 42bd a2ed b03d
00000020: 7350 d13c 2164 643d b2f0 17bd 396f 9bbb
00000030: a758 193d 2a4f 6a3c 0f52 5f3d 5750 9c3d
00000040: 22d5 0d3d e748 67bd b3f4 a43c 9e7d 1d3d
00000050: 9cbc f63d 67b8 c2bd 7b69 3f3b a65f fd3d
00000060: cef1 a1bd 8bae 083d 215d d33d 0b82 843d
00000070: ff28 9d3d ae9c 833d d599 46bd cd2e d9bd
